buyer.pt (torch_old, 140849 bytes, 6 tensors)

input_.weight f4 [256, 6]
1.2502056 1.361632 -0.01739606 0.1580178 -0.19671555 0.6725638 1.184269 0.7250996
-0.3332265 -0.40231287 -0.20201285 0.22328219 0.8356145 0.83583915 -0.2180363 0.75178385
-0.068944424 -0.6119864 0.84390223 0.9891505 0.31271094 0.8731452 0.23143029 -0.097580224
0.65319026 1.1538812 -0.16953087 -0.33336142 0.47943768 0.28711253 -0.71403 -0.4158693
0.42890692 -0.42246482 -0.3626018 0.016625049 1.4957452 1.0533321 -0.09312188 0.3825535
0.09835367 -0.095057406 0.41966385 0.28846505 -0.28853282 -0.1243686 0.07472716 -0.11862167
0.18860129 0.08222438 -0.47402376 0.30593622 -0.093392275 -0.5917944 1.3343114 1.4468743
-0.1561327 0.49114493 0.4801747 0.43081668 -0.36513436 -0.74211204 -0.21368214 0.2232751
-0.18643144 -0.099906065 0.78546894 0.56185013 0.020092383 1.000084 0.49147984 -0.5496746
-1.0624217 -1.1685622 0.33187312 -0.41758585 -0.47704503 0.06747436 -0.582798 -0.32830864
-0.060416114 -0.65321666 0.29505235 0.22810009 -0.057728767 0.6104012 0.37327573 0.25567937
-0.38214377 -0.4997013 -0.44301695 -0.6764959 0.31241146 -0.57342017 -0.1477263 0.1791456
-0.82713 -0.48677748 0.4203138 -0.76597023 0.12825693 0.51217407 0.5680888 0.9086792
0.45343485 0.5164185 -0.49948534 -0.49604404 -0.7170915 -0.44235948 0.40377966 -0.69083756
-0.35475993 -0.038167212 -0.17029247 -0.23411924 -0.33046785 0.092394635 -0.29517946 -0.4879759
1.3521267 1.1685227 0.35932776 0.39558867 -0.100665264 -0.06511901 -0.6764407 -0.72278064
0.34520578 -0.29170316 0.08192426 -0.14862029 0.49300227 0.7433783 -0.32724625 0.33490726
-0.32022634 -0.15030292 0.21683183 0.4354784 0.35898885 -0.0772458 -0.18081146 0.4410501
0.35046685 -0.18596418 0.19983664 -0.062080476 0.05941311 -0.27672493 -0.5324814 -0.7088253
-0.12601227 0.28415748 -0.038787134 -0.37538448 0.13843206 0.28297737 -0.2723607 0.7285706
0.26541668 -0.5024454 1.3286377 0.7267227 0.2513845 0.03557218 0.26087052 0.34893218
0.10777263 0.9115701 0.37235972 -0.18511353 -0.24112843 0.26211682 0.7196133 0.10352228
0.15437073 0.124515645 -0.4246633 0.058471683 0.57230467 0.6219283 -0.24320161 0.53401405
-0.10321161 -0.40121827 0.8154756 0.39382598 0.15605696 0.7356948 -0.26880023 -0.6083752
-0.3343023 0.009555309 -0.04603886 -0.112298 -0.2655183 -0.34079376 0.9130362 0.744391
-0.26052156 0.36834466 0.067423865 -0.3935774 0.0731306 0.32692677 0.030797232 -0.11130076
-0.46961626 0.11838511 -0.50986385 -0.40526086 -0.2167615 -0.91249484 0.5815162 -0.0050817393
-0.4806718 -0.6778023 -0.17277938 0.18552531 -0.17288047 -0.15449055 0.034414694 -0.1556273
0.37322593 -0.032759856 -0.4801282 0.43126076 1.2635416 1.0800046 0.49359813 0.8762057
-0.11136461 0.23665623 0.69078416 0.925351 0.09875692 0.35299966 0.041759133 -0.48065397
-0.44010013 -0.7001062 0.39134324 -0.42136052 -0.08921552 -0.25833535 -0.09890566 -0.051059403
-0.17245705 -0.1463279 -0.37693575 -0.2411403 -0.06064829 0.10380245 -0.43750837 0.012362739
00000000: bd06 a03f f549 ae3f 2f82 8ebc 6bcf 213e
00000010: cd6f 49be 242d 2c3f 2096 973f 21a0 393f
00000020: aa9c aabe f4fb cdbe 75dc 4ebe 16a4 643e
00000030: d5ea 553f 8ef9 553f e844 5fbe e874 403f
00000040: bc32 8dbd 24ab 1cbf fa09 583f f838 7d3f
00000050: a61b a03e 7286 5f3f 10fc 6c3e 24d8 c7bd
00000060: 7a37 273f 61b2 933f 8099 2dbe 59ae aabe
00000070: db78 f53e 6a00 933e acca 36bf d2ec d4be
00000080: b099 db3e 4f4d d8be f1a6 b9be 4131 883c
00000090: 9474 bf3f 96d3 863f afb6 bebd 0dde c33e
000000a0: a66d c93d 75ad c2bd 2ede d63e b1b1 933e
000000b0: 93ba 93be f7b4 febd 8e0a 993d ebef f2bd
000000c0: b220 413e 4165 a83d 3eb3 f2be aca3 9c3e
000000d0: 7344 bfbd d67f 17bf b7ca aa3f 2d33 b93f
000000e0: 40e1 1fbe 5977 fb3e 75d9 f53e 0194 dc3e
000000f0: e4f2 babe 0efb 3dbf 7ecf 5abe 3aa2 643e
00000100: e2e7 3ebe 8d9b ccbd 7e14 493f 69d5 0f3f
00000110: c898 a43c c102 803f 3fa3 fb3e 79b7 0cbf
00000120: 6ffd 87bf 7293 95bf 46eb a93e d0cd d5be
00000130: 3f3f f4be ff2f 8a3d 4032 15bf 1218 a8be
00000140: e376 77bd 3539 27bf 1a11 973e 1293 693e
00000150: 0075 6cbd 4143 1c3f ff1d bf3e 68e8 823e
00000160: 59a8 c3be d9d8 ffbe 1ed3 e2be d62e 2dbf
00000170: 65f4 9f3e aacb 12bf 9045 17be f271 373e
00000180: cbbe 53bf e63a f9be 5f33 d73e a016 44bf
00000190: c955 033e d71d 033f 456e 113f 339f 683f
000001a0: 9d28 e83e 0134 043f 8bbc ffbe 7cf9 fdbe
000001b0: 4f93 37bf f17c e2be 35bc ce3e bbda 30bf
000001c0: 18a3 b5be 3955 1cbd 2661 2ebe f4bc 6fbe
000001d0: 1533 a9be 6639 bd3d c321 97be fad7 f9be
000001e0: 7d12 ad3f 2792 953f cff9 b73e 998a ca3e
000001f0: 9729 cebd 1e5d 85bd 382b 2dbf 2708 39bf
00000200: d0be b03e 1e5a 95be e8c7 a73d eb2f 18be
00000210: cb6a fc3e 0a4e 3e3f d28c a7be f778 ab3e
00000220: b5f4 a3be 02e9 19be 2a09 5e3e 06f7 de3e
00000230: 63cd b73e 0c33 9ebd a426 39be 52d1 e13e
00000240: 6470 b33e 656d 3ebe faa1 4c3e 1948 7ebd
00000250: 295b 733d e4ae 8dbe b350 08bf 9375 35bf
00000260: 5c09 01be 177d 913e 42df 1ebd 6532 c0be
00000270: 22c1 0d3e 69e2 903e dd72 8bbe 9a83 3a3f
00000280: b2e4 873e 43a0 00bf cd10 aa3f 800a 3a3f
00000290: 78b5 803e 22b4 113d d290 853e 3da7 b23e
000002a0: e6b7 dc3d a85c 693f efa5 be3e 678e 3dbe
000002b0: 5fea 76be 2d34 863e 9438 383f 7d03 d43d
000002c0: 5c13 1e3e 0f02 ff3d 786d d9be 0180 6f3d
000002d0: 8f82 123f b136 1f3f d809 79be 25b5 083f
000002e0: 9c60 d3bd 7b6c cdbe 02c3 503f 8fa3 c93e
000002f0: 65cd 1f3e 7f56 3c3f 2fa0 89be 7abe 1bbf
00000300: ac29 abbe df8d 1c3c 3e93 3cbd 7efc e5bd
00000310: 04f2 87be 857c aebe bebc 693f 6990 3e3f
00000320: 1563 85be ac97 bc3e 8615 8a3d fa82 c9be
00000330: 7fc5 953d f262 a73e 7a4a fc3c a7f1 e3bd
00000340: 8b71 f0be e473 f23d 7086 02bf 5a7e cfbe
00000350: baf6 5dbe 4399 69bf 3fde 143f b884 a6bb
00000360: 9d1a f6be 7484 2dbf 14ed 30be 59fa 3d3e
00000370: 9407 31be c532 1ebe 6cf6 0c3d c35c 1fbe
00000380: 7817 bf3e 332f 06bd 5dd3 f5be 36ce dc3e
00000390: bbbb a13f 973d 8a3f e5b8 fc3e 044f 603f
000003a0: 2113 e4bd 0356 723e 3bd7 303f cee3 6c3f
000003b0: 1141 ca3d 5fbc b43e a00b 2b3d 4718 f6be
000003c0: ce54 e1be 293a 33bf 245e c83e 91bc d7be
000003d0: a0b6 b6bd 8844 84be 0d8f cabd aa23 51bd
000003e0: 9598 30be fbd6 15be b9fd c0be 7ced 76be
000003f0: 576a 78bd 6196 d43d 1901 e0be 168d 4a3c

input_.bias f4 [256]
0.0088680675 -0.25444075 -0.026354956 0.13174725 0.023447918 -0.30861056 0.26305595 0.24094786
-0.04155892 0.33725756 0.13820939 0.121870436 0.018024968 0.2810397 -0.2558916 -0.20862354
-0.17054528 0.025631629 -0.33189762 0.15200056 0.08522876 -0.2688413 0.12867631 0.07252588
-0.14216256 0.18830086 -0.029887306 -0.0052614687 0.003104951 -0.09366271 0.26774675 -0.028490765
-0.3766489 0.14814317 -0.0496652 0.04995947 -0.1301661 -0.099933445 -0.037535816 0.28307968
-0.24555306 -0.2710873 -0.17338431 0.18241209 0.23570971 -0.13574761 -0.3859222 0.22953065
-0.24304914 0.20203976 -0.40165865 -0.07572361 -0.038812157 0.1885347 0.13361093 0.09838801
-0.10653873 -0.0862528 -0.025782127 0.2999228 0.2108484 -0.21956256 0.12948233 -0.21573825
-0.06626845 0.0671169 -0.32568234 -0.031240573 -0.33585238 0.30498943 -0.32121006 0.034476273
-0.17031866 -0.056123443 -0.06693318 -0.15544854 -0.21523075 0.31482443 0.23570602 -0.17792986
0.18857905 -0.26293418 0.21813238 -0.24344791 -0.2093964 -0.10878061 0.026810905 -0.22207224
0.11102813 -0.040180888 -0.060985163 -0.0580787 0.11844823 -0.29615214 0.13187042 -0.26469916
0.07250728 0.066707164 -0.08558947 -0.2471797 -0.10687329 -0.26883718 -0.2101371 0.24144061
0.09556038 0.28369302 0.14784864 -0.03980642 0.033312026 0.1753257 0.24371326 -0.19577037
0.12548743 0.2972969 0.104029305 -0.3099292 -0.07592579 0.106302544 -0.007017754 -0.2356532
-0.24317342 0.13070008 0.2559692 0.14055519 0.08135369 0.24733797 0.10781694 0.09095312
0.120487995 0.1739377 0.030721417 -0.2965852 0.10872326 -0.068495855 -0.029770222 0.28842503
-0.0525698 -0.11457322 0.02250621 0.047206063 -0.12531917 0.057255432 -0.10597597 0.18971597
0.05663617 0.032372445 0.11977754 -0.057443865 0.14848681 -0.15120575 -0.32352155 0.2888833
0.048993085 -0.21050072 -0.43508253 0.1518864 0.010611423 0.22172639 -0.24401316 -0.18567759
0.2576998 -0.2136477 -0.05361989 -0.19093376 0.13666636 0.11441864 -0.08883471 0.21084127
0.18257715 0.20153844 0.054538585 0.2902594 -0.033000354 0.063916504 -0.27534857 -0.13607381
-0.041138288 -0.06047559 0.12237725 0.2370688 -0.18137014 0.19306362 0.03611648 0.25701734
0.36709413 -0.00577301 0.048237305 -0.35772833 0.21535946 0.011624798 0.22725229 0.00576754
0.2217404 0.091899015 -0.34545854 0.1595533 -0.1599449 0.34655768 -0.06020304 -0.21111067
0.03158906 0.20345685 0.08048562 0.07304985 0.06696237 0.026892185 0.1158817 -0.127097
0.02116672 -0.20857248 -0.14266165 0.16886275 0.13712119 -0.3532151 0.30693597 -0.093677334
-0.25941938 -0.2694907 0.24369527 -0.25360847 0.09140639 0.14690046 0.13876846 -0.30791762
-0.12535916 0.33981645 0.20984904 0.099118516 0.101867475 -0.24407007 -0.15999447 0.30028978
0.25487226 0.21951854 -0.32130778 0.07685193 -0.32012904 -0.18019009 0.22617541 0.1482715
0.14990447 -0.01624414 -0.018922873 -0.35970894 -0.075372174 0.04886442 -0.24960758 -0.07163968
-0.039587304 0.14458604 0.24440633 -0.10100049 0.021344027 -0.22987707 0.2886971 -0.4346464
00000000: 5f4b 113c 0f46 82be 59e6 d7bc c0e8 063e
00000010: d915 c03c 3402 9ebe 45af 863e 09bb 763e
00000020: b039 2abd 06ad ac3e c386 0d3e 3597 f93d
00000030: 19a9 933c 70e4 8f3e 3904 83be 69a1 55be
00000040: 6ca3 2ebe 6cf9 d13c 7cee a9be 09a6 1b3e
00000050: 6b8c ae3d 91a5 89be b9c3 033e 7388 943d
00000060: 1093 11be f1d1 403e 39d6 f4bc 6668 acbb
00000070: 6f7c 4b3b 3cd2 bfbd 1a16 893e 7765 e9bc
00000080: 20d8 c0be d8b2 173e bd6d 4bbd 4da2 4c3d
00000090: 434a 05be e8a9 ccbd 28bf 19bd d2ef 903e
000000a0: 4372 7bbe f4cb 8abe a88b 31be 3cca 3a3e
000000b0: e35d 713e 6c01 0bbe 9897 c5be 150a 6b3e
000000c0: e0e1 78be 83e3 4e3e 34a6 cdbe fb14 9bbd
000000d0: 7ff9 1ebd 3e0f 413e 4ed1 083e a77f c93d
000000e0: fa30 dabd 4fa5 b0bd 0a35 d3bc 7b8f 993e
000000f0: a5e8 573e 02d5 60be 0497 043e 7dea 5cbe
00000100: c1b7 87bd 9674 893d d6bf a6be 3bec ffbc
00000110: d8f4 abbe 9327 9c3e a575 a4be fe36 0d3d
00000120: 0468 2ebe b2e1 65bd 4314 89bd e72d 1fbe
00000130: 7365 5cbe ab30 a13e eb5c 713e 3f33 36be
00000140: de1a 413e 4f9f 86be 185e 5f3e 694a 79be
00000150: 036c 56be 5ec8 debd 8ba2 db3c e866 63be
00000160: b762 e33d b794 24bd 94cb 79bd eee3 6dbd
00000170: fc94 f23d 41a1 97be 0a09 073e a686 87be
00000180: b27e 943d c49d 883d 8849 afbd ad1c 7dbe
00000190: 62e0 dabd 07a5 89be 2e2e 57be 353c 773e
000001a0: 29b5 c33d 3640 913e a265 173e 0f0c 23bd
000001b0: 3172 083d 9588 333e f88f 793e 0778 48be
000001c0: c77f 003e 4d37 983e 510d d53d 0aaf 9ebe
000001d0: fb7e 9bbd 26b5 d93d 30f5 e5bb 134f 71be
000001e0: 7402 79be 3ed6 053e 650e 833e b3ed 0f3e
000001f0: c39c a63d 2a46 7d3e 21cf dc3d a145 ba3d
00000200: 69c2 f63d b91c 323e 7bab fb3c 04da 97be
00000210: 4daa de3d 8e47 8cbd aee0 f3bc 72ac 933e
00000220: 6e53 57bd 5da5 eabd f15e b83c 255b 413d
00000230: ab53 00be ac84 6a3d ee09 d9bd e744 423e
00000240: 54fb 673d f898 043d ed4d f53d 424a 6bbd
00000250: ed0c 183e aed5 1abe 9ea4 a5be 83e8 933e
00000260: f9ac 483d 808d 57be 23c3 debe 1c88 1b3e
00000270: 89db 2d3c 3e0c 633e 96de 79be 4422 3ebe
00000280: 3af1 833e 76c6 5abe 88a0 5bbd 2484 43be
00000290: 44f2 0b3e 5254 ea3d f9ee b5bd c6e6 573e
000002a0: 81f5 3a3e 1860 4e3e da63 5f3d e19c 943e
000002b0: 612b 07bd a8e6 823d 7dfa 8cbe ef56 0bbe
000002c0: 9f80 28bd 41b5 77bd eca0 fa3d 2ac2 723e
000002d0: 18b9 39be 78b2 453e e0ee 133d c797 833e
000002e0: c3f3 bb3e 852b bdbb 7b94 453d 2b28 b7be
000002f0: 3187 5c3e f075 3e3c d3b4 683e a2fd bc3b
00000300: ea0f 633e 8d35 bc3d f1df b0be f161 233e
00000310: 99c8 23be 0270 b13e 7697 76bd 652d 58be
00000320: 8863 013d fe56 503e a5d5 a43d 299b 953d
00000330: 9123 893d 004d dc3c 6253 ed3d b725 02be
00000340: d465 ad3c 0694 55be e515 12be 5bea 2c3e
00000350: 7f69 0c3e 9cd8 b4be b626 9d3e e7d9 bfbd
00000360: 9ed2 84be affa 89be 418b 793e f8d8 81be
00000370: 4633 bb3d 136d 163e 5219 0e3e 61a7 9dbe
00000380: 275e 00be 6cfc ad3e abe2 563e a6fe ca3d
00000390: e59f d03d 81ed 79be 97d5 23be 95bf 993e
000003a0: 9e7e 823e 78c9 603e 7482 a4be 8b64 9d3d
000003b0: f4e7 a3be c083 38be 879a 673e 7cd4 173e
000003c0: 8f80 193e 6e12 85bc 2404 9bbc c52b b8be
000003d0: ba5c 9abd 0f26 483d 2199 7fbe d3b7 92bd
000003e0: 4c26 22bd 5d0e 143e a745 7a3e 58d9 cebd
000003f0: abd9 ae3c e564 6bbe 1bd0 933e f989 debe

hidden1.weight f4 [128, 256]
0.20954941 -0.0020224873 0.044467054 -0.04124485 -0.08414641 -0.031458717 -0.023036035 -0.036185756
0.08250737 -0.039568797 -0.001996372 0.021549951 0.020127017 -0.046293527 0.028593035 -0.0933466
-0.13276178 0.006085249 -0.04134738 -0.03809302 -0.04806831 -0.21690588 0.004985362 -0.027540052
0.039723612 0.03645514 -0.0003258015 -0.0063871075 -0.04502385 0.04539596 -0.054658215 -0.043067724
0.042279124 0.008858883 0.036101706 -0.17232469 -0.0033898929 -0.019280346 -0.032169938 -0.012942243
-0.030259997 -0.009512667 0.09526335 -0.046790108 -0.037155274 0.034333725 -0.026976924 -0.040250212
-0.18201818 -0.027370526 0.09993616 -0.07263973 -0.083341464 -0.063137 0.011164011 0.042357277
-0.0019404405 0.095316015 0.04813922 -0.03336167 0.009207116 0.06783433 -0.019915652 0.01350908
0.13267802 0.04328898 -0.06528252 -0.023679895 0.053041752 -0.0060715214 0.07546621 -0.15278964
-0.0033415807 -0.01335348 0.03243554 -0.005998365 -0.0020455748 -0.04527274 0.06278853 -0.0032545154
0.047758576 0.044791643 0.036414735 -0.05168562 -0.08911371 0.07195151 0.10585618 0.240628
0.02395805 0.19340819 0.069859736 -0.11459677 -0.023922605 0.08101353 -0.07518116 0.0051690997
-0.027791018 0.003909779 0.08632534 0.004140856 0.03381059 -0.02680439 0.05199658 -0.01164857
-0.019191928 -0.072360195 0.0095916735 -0.053947005 0.036895227 -0.011902712 0.03835873 0.057214614
0.069499016 -0.046065208 -0.0022582721 0.04698217 0.004109394 -0.020102486 0.033082757 -0.08548327
0.012016141 -0.05898762 0.051410995 -0.019565478 0.06362482 -0.01788597 -0.005978415 -0.009820944
0.045109272 -0.044051792 -0.03905044 -0.096922114 -0.016668295 0.025464281 -0.07713557 -0.015744457
0.036428757 -0.04330493 -0.041790396 -0.071578495 0.23824303 -0.044334393 -0.009163809 -0.038157266
0.028392954 0.02237149 0.052406248 -0.018980375 -0.06282724 -0.033165406 0.24892822 -0.04733903
0.07372833 0.029928759 0.07008888 0.027137307 -0.07870498 0.0449535 0.0105489865 -0.18594033
0.058981203 -0.0059257187 -0.00089157163 -0.03288727 0.04432181 0.03464396 -0.09172386 -0.06867171
0.05666344 -0.018818643 -0.0677917 -0.017729912 0.045440633 0.055201314 0.014093297 0.014728954
0.10699846 -0.04610171 0.058809996 -0.05361478 0.0072688223 0.019832304 -0.035983875 0.021652795
0.07454944 4.9761253e-05 -0.08149726 0.029552622 0.057037633 0.026418295 -0.041453898 0.048248496
0.0065261517 0.012776029 0.010758415 -0.068862215 0.07508472 -0.016974619 -0.03344979 -0.02137137
-0.037593305 -0.011160223 0.013028344 0.0023949246 -0.07054465 0.015744664 -0.052597504 0.033238996
-0.10799426 -0.023605969 -0.043126184 -0.07259888 0.035717756 0.029590735 0.012256022 0.04339494
-0.03271419 0.028001057 0.007041567 0.1834944 0.009421562 0.060185734 0.0017993874 0.0623289
-0.037064113 0.051742256 -0.03621607 -0.028857127 -0.07678525 -0.057199404 -0.1324867 -0.011695949
0.01860546 -0.08762323 0.008859963 -0.016172543 0.0022907783 -0.066741705 -0.071074 -0.014568168
0.0029413493 -0.05097939 -0.016602598 0.059767697 -0.117673814 -0.029064633 -0.08704219 -0.052515853
0.04420754 -0.003718825 0.06351909 0.09061514 0.0347809 0.050979037 -0.04936225 0.070788056
00000000: 1f94 563e b58b 04bb 1623 363d 5cf0 28bd
00000010: f454 acbd dbda 00bd 11b6 bcbc 8437 14bd
00000020: a0f9 a83d e412 22bd 90d5 02bb 8689 b03c
00000030: 6ae1 a43c 489e 3dbd f13b ea3c 812c bfbd
00000040: b4f2 07be c566 c73b df5b 29bd 6d07 1cbd
00000050: 47e3 44bd 931c 5ebe 3f5c a33b ad9b e1bc
00000060: 3ab5 223d fc51 153d 56d0 aab9 f14a d1bb
00000070: ee6a 38bd 1df1 393d 4be1 5fbd c867 30bd
00000080: e02c 2d3d d924 113c 62df 133d e275 30be
00000090: f728 5ebb d1f1 9dbc a0c4 03bd b40b 54bc
000000a0: d0e3 f7bc 04db 1bbc 6e19 c33d fca6 3fbd
000000b0: 2130 18bd 85a1 0c3d b6fe dcbc 68dd 24bd
000000c0: f962 3abe 2738 e0bc 54ab cc3d 24c4 94bd
000000d0: eeae aabd f94d 81bd 42e9 363c d37e 2d3d
000000e0: 6156 feba 0b35 c33d a12d 453d 3fa6 08bd
000000f0: 72d9 163c baec 8a3d 2626 a3bc 3055 5d3c
00000100: bfdc 073e c94f 313d d8b2 85bd 57fc c1bc
00000110: 4f42 593d 9df3 c6bb 078e 9a3d e374 1cbe
00000120: 6cfe 5abb 8ec8 5abc 21db 043d ef8d c4bb
00000130: 0d0f 06bb e96f 39bd 4697 803d b549 55bb
00000140: 7f9e 433d 7177 373d 9e27 153d 4db4 53bd
00000150: 4081 b6bd 505b 933d 20cb d83d 3067 763e
00000160: ac43 c43c cc0c 463e 9f12 8f3d b6b1 eabd
00000170: 57f9 c3bc 6cea a53d 94f8 99bd 8d61 a93b
00000180: fda9 e3bc 9a1d 803b 57cb b03d 05b0 873b
00000190: f97c 0a3d e194 dbbc 5efa 543d a5d9 3ebc
000001a0: 6438 9dbc 9531 94bd 6526 1d3c 89f7 5cbd
000001b0: 731f 173d 9803 43bc 0b1e 1d3d df59 6a3d
000001c0: 8055 8e3d dfae 3cbd 85ff 13bb 6070 403d
000001d0: 18a8 863b f8ad a4bc c981 073d da11 afbd
000001e0: 59df 443c 019d 71bd 5694 523d c847 a0bc
000001f0: bb4d 823d 9985 92bc 94e6 c3bb 06e8 20bc
00000200: 80c4 383d a76f 34bd 5bf3 1fbd 1a7f c6bd
00000210: f38b 88bc 789a d03c 41f9 9dbd 85fa 80bc
00000220: 5236 153d 8360 31bd 682c 2bbd bf97 92bd
00000230: fbf5 733e fb97 35bd cd23 16bc cb4a 1cbd
00000240: 5798 e83c 6a44 b73c efa7 563d bb7c 9bbc
00000250: 91ab 80bd 73d8 07bd 0ae7 7e3e 92e6 41bd
00000260: e1fe 963d 282d f53c c28a 8f3d 0f4f de3c
00000270: 1430 a1bd 2921 383d a8d5 2c3c 2467 3ebe
00000280: 4696 713d 882c c2bb 5cb8 69ba cdb4 06bd
00000290: c98a 353d d3e6 0d3d b8d9 bbbd c1a3 8cbd
000002a0: ec17 683d 8e29 9abc 60d6 8abd 523e 91bc
000002b0: f51f 3a3d c61a 623d 92e7 663c b651 713c
000002c0: 0222 db3d 26d5 3cbd c0e2 703d 2c9b 5bbd
000002d0: 4d2f ee3b 5b77 a23c d463 13bd 3461 b13c
000002e0: 60ad 983d bdb6 5038 09e8 a6bd 5718 f23c
000002f0: 4ba0 693d 2e6b d83c 90cb 29bd 37a0 453d
00000300: 54d9 d53b 8d52 513c 1044 303c a207 8dbd
00000310: 05c6 993d 5b0e 8bbc a602 09bd 0313 afbc
00000320: 70fb 19bd 5ed9 36bc d674 553c 2bf4 1c3b
00000330: b779 90bd f4fa 803c 7b70 57bd 9d25 083d
00000340: 182c ddbd 4e61 c1bc 15a5 30bd b9ae 94bd
00000350: c84c 123d 4568 f23c 7bcd 483c e5be 313d
00000360: 51ff 05bd 7962 e53c f2bc e63b f5e5 3b3e
00000370: e55c 1a3c 5185 763d 6cd9 eb3a 974c 7f3d
00000380: 8ad0 17bd b0ef 533d 4d57 14bd c865 ecbc
00000390: 9641 9dbd ec49 6abd 98aa 07be 5ea0 3fbc
000003a0: 7a6a 983c cf73 b3bd 6129 113c 487c 84bc
000003b0: e220 163b e0af 88bd 3f8f 91bd 53af 6ebc
000003c0: a7c3 403b c4cf 50bd 2c02 88bc f9ce 743d
000003d0: f8fe f0bd f418 eebc 2d43 b2bd dd1a 57bd
000003e0: f712 353d 88b7 73bb 4c16 823d 6e94 b93d
000003f0: 6b76 0e3d 65cf 503d 1230 4abd 54f9 903d

hidden1.bias f4 [128]
0.00061814114 -0.053260267 -0.04523701 0.018037139 0.025619915 0.08002278 0.0020668986 -0.07935706
-0.025311673 -0.022593582 0.029236278 -0.020621652 -0.062069114 0.029906003 -0.03351348 0.04775005
0.007076146 -0.06871826 -0.029850574 0.028845835 0.078079544 -0.05422202 -0.075883575 0.006957311
0.06802741 0.013201925 0.02412668 -0.113652684 0.03622213 -0.012244674 -0.06382617 0.015397067
0.0064367675 0.025225302 -0.008897629 0.056753237 -0.023392135 0.0005662925 -0.026152749 0.05665067
0.02194411 -0.028352182 -0.03495663 -0.07815448 0.021318613 0.036816526 0.019991135 0.007246637
-0.048697732 0.05372875 -0.009402753 0.027257424 -0.07470234 0.016190356 -0.04498156 -0.047471356
0.0054429723 -0.038911324 0.07263181 -0.04275049 0.026711056 -0.030736862 -0.027308142 -0.021937052
-0.056812603 -0.054067817 -0.015007551 0.027062995 -0.020217134 0.04400012 -0.03206781 -0.05075225
-0.024611171 -0.00033983405 0.037660282 -0.001604563 -0.05467253 -0.06574704 -0.0055442355 -0.00557247
-0.00869013 -0.027782066 -0.012008008 -0.0575558 -0.0056698746 0.05451152 0.04617122 0.03753035
0.07636242 0.01931004 0.036160167 -0.03240957 0.061451733 -0.0017805224 -0.024114998 -0.04173492
-0.03196646 -0.05144193 -0.037315976 0.026242815 -0.0071501234 0.024228001 -0.036335018 0.050889105
0.06811058 0.027178792 0.009898635 0.032067303 -0.04971427 -0.027227582 0.018895209 -0.051662307
-0.0151775 0.08050964 -0.0014633687 -0.034042865 0.011055449 -0.054726046 0.035303548 -0.007234511
-0.04521317 -0.014994098 -0.04827511 0.052694578 -0.016270816 0.0051987725 0.021398611 0.04280149
00000000: c00a 223a 7027 5abd 714a 39bd 9fc2 933c
00000010: dbe0 d13c fce2 a33d ce74 073b f485 a2bd
00000020: 6d5a cfbc 2d16 b9bc eb80 ef3c bdee a8bc
00000030: 2f3c 7ebd 6ffd f43c 6e45 09bd 8e95 433d
00000040: 04df e73b 29bc 8cbd 3189 f4bc 1a4e ec3c
00000050: 2be8 9f3d e917 5ebd d968 9bbd 28fa e33b
00000060: f451 8b3d e34c 583c 51a5 c53c bdc2 e8bd
00000070: a85d 143d e39d 48bc 4cb7 82bd fb43 7c3c
00000080: 85eb d23b 4ba5 ce3c 5cc7 11bc 1576 683d
00000090: dda0 bfbc 3f73 143a 4a3e d6bc 880a 683d
000000a0: 22c4 b33c d642 e8bc af2e 0fbd 750f a0bd
000000b0: 5fa4 ae3c edcc 163d 73c4 a33c 3275 ed3b
000000c0: 4677 47bd ae12 5c3d 010e 1abc f64a df3c
000000d0: 8afd 98bd a3a1 843c 963e 38bd 5371 42bd
000000e0: f65a b23b 7b61 1fbd fdbf 943d 231b 2fbd
000000f0: 25d1 da3c dfcb fbbc 53b5 dfbc 55b5 b3bc
00000100: 55b4 68bd 3776 5dbd 3be2 75bc 37b3 dd3c
00000110: 679e a5bc 7839 343d 8959 03bd 97e1 4fbd
00000120: 5e9d c9bc c12b b2b9 ab41 1a3d 3350 d2ba
00000130: 4ef0 5fbd 62a6 86bd 6bac b5bb 4499 b6bb
00000140: 0c61 0ebc 3797 e3bc 3cbd 44bc a1bf 6bbd
00000150: 5bca b9bb 7947 5f3d 081e 3d3d 6db9 193d
00000160: e763 9c3d 1730 9e3c af1c 143d e6bf 04bd
00000170: d0b4 7b3d 6b60 e9ba d18c c5bc 3cf2 2abd
00000180: 43ef 02bd c6b4 52bd a3d8 18bd 2cfb d63c
00000190: 954b eabb cd79 c63c 07d4 14bd 1871 503d
000001a0: 8f7d 8b3d 0fa6 de3c e22d 223c 0159 033d
000001b0: 31a1 4bbd 610c dfbc 20ca 9a3c db9b 53bd
000001c0: 0dab 78bc 3de2 a43d 81ce bfba 8870 0bbd
000001d0: ea21 353c 6b28 60bd 749a 103d 7a0f edbb
000001e0: 7231 39bd cea9 75bc 1fbc 45bd 45d6 573d
000001f0: 604a 85bc 775a aa3b 244c af3c 9d50 2f3d

hidden2.weight f4 [2, 128]
0.017438669 0.36918887 0.39387444 0.08997336 -0.17178302 -0.18085875 -0.010155912 -0.13224305
0.35262367 -0.08868877 -0.068251 0.09790412 -0.031098979 0.33830675 -0.20547271 -0.10287271
0.08191385 -0.10022833 -0.29343465 -0.16599034 0.06426313 -0.079522625 0.33162165 -0.25797364
0.043532003 -0.108577125 0.13825314 -0.10883777 -0.10278655 -0.034888156 -0.034664437 0.016196279
-0.079561085 0.12522675 -0.025448894 -0.082562715 -0.1298007 -0.077262715 -0.108527526 0.09512969
-0.06411591 -0.14331487 0.13523453 -0.08824646 0.22304116 0.17979181 -0.18015824 0.4754317
0.12614158 -0.18480459 0.0053762672 -0.15551037 0.06630048 -0.17474398 0.03710944 -0.110396326
-0.15836667 0.48358214 -0.04896137 -0.12089909 -0.092119135 0.22248964 0.5844362 -0.05860645
-0.1190762 -0.1280802 -0.32036805 -0.17134194 -0.042245314 0.09814783 0.119888246 0.043490775
-0.22769892 -0.025888411 -0.05051623 0.05823486 -0.05502753 -0.09865988 0.02827388 -0.038084947
-0.057455957 0.12459974 0.0009267932 -0.056103867 -0.040320445 0.07309305 0.02270775 0.3778069
-0.3591102 -0.16367967 0.055554934 -0.0579339 -0.21146217 0.23236476 -0.060907584 -0.30269834
-0.1763635 -0.33686864 0.012830826 -0.1195876 0.09061746 -0.03907101 -0.11573218 0.06393424
-0.19280736 0.10406991 0.08719415 0.14478606 -0.013822637 0.11903215 -0.062446356 -0.04935133
0.09998876 -0.10197913 0.13745919 0.14178826 0.5121683 0.3486251 -0.13786778 -0.35864985
-0.6044449 -0.17259124 -0.10679203 -0.03681452 0.30681077 0.009150472 0.10026186 0.050281502
0.046016965 0.0091689415 -0.3513695 0.01132531 0.10636435 -0.109014034 -0.008878192 0.12424053
0.08256962 0.06695354 -0.013578759 0.027061792 -0.011387558 0.08843461 -0.060487285 -0.067549475
-0.019774355 -0.06343245 0.1892599 -0.10800735 0.06433559 0.0053560743 0.010615927 0.12691279
0.0510097 -0.008027104 0.043923754 0.242146 -0.06376866 -0.027557919 -0.041880783 -0.08994611
-0.01704698 0.089487806 -0.053697005 -0.050889656 0.0022334058 0.031050798 -0.107950985 0.05096115
-0.03182509 -0.021166634 -0.037063327 0.022082953 -0.034863755 0.035937537 -0.06656092 0.2704976
-0.009402157 0.042629786 -0.0076549994 -0.059346214 -0.040276762 -0.067821555 0.047730926 0.04673736
-0.08588584 0.08237143 -0.05092544 0.019598529 0.06416414 0.028987804 0.12274822 -0.047915142
0.05435628 -0.01209014 0.05888872 -0.07985783 -0.14809924 0.08924996 0.060177457 0.11480451
-0.06333238 -0.06791954 0.084299184 0.09885619 -0.042161394 -0.09133009 -0.051116575 -0.12734698
-0.037186787 0.19096714 -0.13256717 0.015963228 -0.009665219 0.045578044 -0.07486913 0.04312651
-0.13226001 -0.12297492 0.055229574 -0.091442145 -0.14348625 0.0060449247 -0.026408542 0.09773012
-0.06036549 -0.104572594 -0.0090162335 -0.029148467 0.009736545 -0.04923598 -0.0724768 0.058028925
-0.024685979 0.08669343 0.088170834 0.048433267 0.18148719 -0.0013546778 0.044007692 -0.03212623
0.18289907 -0.09790394 -0.011431131 0.010009667 -0.060312234 0.10461504 -0.05300329 -0.06521207
-0.15542918 -0.047736283 0.034136735 -0.05571607 0.1568341 0.05618389 0.07873716 0.1045734
00000000: 8adb 8e3c 5306 bd3e e9a9 c93e f443 b83d
00000010: e3e7 2fbe 0933 39be fb64 26bc b96a 07be
00000020: 178b b43e 75a2 b5bd 2ec7 8bbd f581 c83d
00000030: 49c3 febc 8b36 ad3e 7067 52be edae d2bd
00000040: 73c2 a73d 8344 cdbd 113d 96be 5ff9 29be
00000050: 639c 833d c2dc a2bd 50ca a93e 1f15 84be
00000060: 9d4e 323d af5d debd 3b92 0d3e 56e6 debd
00000070: c181 d2bd e2e6 0ebd 4cfc 0dbd 0fae 843c
00000080: ecf0 a2bd 713b 003e 337a d0bc a416 a9bd
00000090: 7aea 04be ea3b 9ebd ae43 debd 5bd3 c23d
000000a0: 344f 83bd 22c1 12be ec7a 0a3e 8fba b4bd
000000b0: e764 643e 581b 383e 677b 38be c96b f33e
000000c0: 422b 013e 6a3d 3dbe 662b b03b 1c3e 1fbe
000000d0: 8cc8 873d 16f0 32be 1100 183d 7817 e2bd
000000e0: df2a 22be 1498 f73e b88b 48bd f199 f7bd
000000f0: f5a8 bcbd 53d4 633e 9c9d 153f 510d 70bd
00000100: 39de f3bd 7527 03be 4807 a4be 4374 2fbe
00000110: 6c09 2dbd bb01 c93d f887 f53d 6223 323d
00000120: e829 69be ef13 d4bc 1bea 4ebd ad87 6e3d
00000130: 8c64 61bd 310e cabd a09e e73c f6fe 1bbd
00000140: f056 6bbd 262e ff3d 0af4 723a 2bcd 65bd
00000150: 0d27 25bd cfb1 953d 9a05 ba3c e86f c13e
00000160: 4bdd b7be a59b 27be 928d 633d 194c 6dbd
00000170: 8a89 58be 07f1 6d3e 3b7a 79bd 47fb 9abe
00000180: a298 34be 0c7a acbe 6338 523c 58ea f4bd
00000190: a695 b93d ec08 20bd fe04 edbd f4ef 823d
000001a0: 4b6f 45be 9b22 d53d d992 b23d cc42 143e
000001b0: 5778 62bc 21c7 f33d c0c7 7fbd 9f24 4abd
000001c0: e8c6 cc3d 6fda d0bd 1ac2 0c3e f130 113e
000001d0: 761d 033f fd7e b23e 362d 0dbe f4a0 b7be
000001e0: e7bc 1abf c2bb 30be c8b5 dabd d2ca 16bd
000001f0: 4d16 9d3e dceb 153c 1756 cd3d faf3 4d3d
00000200: 497c 3c3d 5439 163c b4e6 b3be cb8d 393c
00000210: 8dd5 d93d c042 dfbd d675 11bc d271 fe3d
00000220: 431a a93d f01e 893d 7179 5ebc b1b0 dd3c
00000230: e192 3abc 341d b53d 84c1 77bd 6157 8abd
00000240: d4fd a1bc dfe8 81bd 59cd 413e f532 ddbd
00000250: 61c2 833d 0282 af3b 6dee 2d3c 6df5 013e
00000260: 8cef 503d 1d84 03bc 65e9 333d 1ff5 773e
00000270: 2599 82bd 25c1 e1bc 2f8b 2bbd ab35 b8bd
00000280: 1ca6 8bbc 6245 b73d 64f1 5bbd ac71 50bd
00000290: 555e 123b 3e5e fe3c 6815 ddbd a4bc 503d
000002a0: 075b 02bd a665 adbc b7cf 17bd 4fe7 b43c
000002b0: 4ccd 0ebd 3d33 133d 1751 88bd a97e 8a3e
000002c0: 810b 1abc 929c 2e3d cad6 fabb 0415 73bd
000002d0: 3ff9 24bd 07e6 8abd 8181 433d ad6f 3f3d
000002e0: eae4 afbd 5ab2 a83d 3297 50bd 188d a03c
000002f0: 7d68 833d d577 ed3c 6b63 fb3d ab42 44bd
00000300: b1a4 5e3d b915 46bc 4c35 713d 818c a3bd
00000310: 54a7 17be afc8 b63d a37c 763d a01e eb3d
00000320: 68b4 81bd 6619 8bbd 0da5 ac3d 1d75 ca3d
00000330: 6db1 2cbd 450b bbbd 9d5f 51bd 3f67 02be
00000340: 2c51 18bd e48c 433e b0bf 07be 51c5 823c
00000350: de5a 1ebc 0bb0 3a3d fd54 99bd 6ca5 303d
00000360: 2b6f 07be 46da fbbd 6838 623d 0546 bbbd
00000370: 0fee 12be 8114 c63b ba56 d8bc bb26 c83d
00000380: ce41 77bd 282a d6bd d3b8 13bc c4c8 eebc
00000390: 0886 1f3c abab 49bd b76e 94bd bdaf 6d3d
000003a0: 403a cabc 538c b13d e992 b43d f661 463d
000003b0: c7d7 393e 728f b1ba 6941 343d cb96 03bd
000003c0: e549 3b3e dc81 c8bd a349 3bbc 96ff 233c
000003d0: f609 77bd 6940 d63d fa19 59bd e88d 85bd
000003e0: d428 1fbe 1f87 43bd f6d2 0b3d 8936 64bd
000003f0: 1e99 203e 1421 663d f340 a13d 942a d63d

hidden2.bias f4 [2]
0.016748032 0.024474803
00000000: 2b33 893c 627f c83c
