seller.pt (torch_old, 140849 bytes, 6 tensors)

input_.weight f4 [256, 6]
00000000: 7320 cbbe 0ffd 94be 87c1 4bbb f23c 50bf
00000010: 29de 0dbe 0515 b83e 4c25 503e 5f53 5dbe
00000020: d159 b33d d543 d5bd ebd6 94be c050 02bf
00000030: 3c35 273f 5902 3b3e 31d8 acbe 3ace a5be
00000040: ef80 fd3e 6db7 10bf b02a 253e 6eaf 88be
00000050: e422 56be 5dc9 cb3e 90e9 053f 190d 2abf
00000060: acf5 aebd f1f0 2d3e 1061 cf3e 483c 80be
00000070: 2b82 e2be 1f27 043f 3ece ef3e 798c f63e
00000080: e2aa 133e 884e 1a3f 9596 ea3e e260 aabe
00000090: 40b6 623e 14f3 743e c3f5 453e 5b48 90be
000000a0: 062a 8d3e 2df5 ff3e 946c 76bf b4a7 44bf
000000b0: 9836 123e 6b28 76bf 8010 bb3d e059 0abd
000000c0: 562e d03e 68d9 a03d e6f3 aa3e c8a7 09be
000000d0: ceba 8abe 9859 c13e 3a17 f43c 01df 2abe
000000e0: 981d 853e 3a14 b4bd a0aa d3be 117c e73e
000000f0: 64e9 a7be bcfe 0fbf 5684 cfbe c8e5 42be
00000100: 6ff3 f0be 5d63 833e 7dba 9cbf 8ad1 fdbe
00000110: 3459 95bd bcf6 79bf aaf2 823e f6e9 0a3f
00000120: 6f6e 88be 8bf8 023f b4e8 a03e 6f01 2bbd
00000130: cf6d 0ebe 6825 4d3f 7037 793e b2a6 cd3e
00000140: 825c c0be 7c43 5b3e b6ea 6ebc 4b22 c93d
00000150: 49e0 f2bd 151b 243e 09ae 843e 25a7 8abe
00000160: 8a0a 6fbe 8895 d33e 2c79 3a3f 9dce 0e3f
00000170: a24d fe3e 1084 ed3e 20bd 583e 940c be3e
00000180: 0dd4 693f 8b43 713e 78cd b3bd 7327 223e
00000190: d9a9 9c3e 88a6 533f 0a29 37bf 4219 1dbf
000001a0: e756 e9bd 1189 1dbf 902f cf3e b0c2 923c
000001b0: 46c9 fabd f523 363e dae9 afbe 87b3 243e
000001c0: 3bc8 2dbf 3820 1d3e 489e cabe c7bb 3abf
000001d0: 476d 753e 184d 42bf 0f9d fbbd b88b 993f
000001e0: cb8a 9bbf cee6 22bf caf5 7e3e e15d 97bf
000001f0: a203 95be 22e2 063f aa4e 213f c5fd 1b3f
00000200: a8b3 64bc c5f2 583e 72ac 9b3e f9b2 3c3f
00000210: 8596 b1be 91a7 f5be 25e7 ebbe 58fb a5be
00000220: 6d96 e73e 2042 593d 35be 763e 7275 a43e
00000230: 6bfe 91be da3c 9abc 9234 b8be 678e 213e
00000240: a3b4 d53e 4d21 053f b62f 7f3e b692 22bf
00000250: d7fd 993e 1a0e 3e3e 8920 7cbf cefb 5fbf
00000260: 74ee c3bd 0607 8bbf 2436 663e f6e0 f73d
00000270: 06f1 573e f36a 89be b571 32be 740a 0c3d
00000280: d1b3 043f 0361 65bf 75e4 983e 08b3 8d3d
00000290: 2169 d03e f1df 633f c6c1 cdbe f832 1f3e
000002a0: 73b0 463f 13e9 323f c274 fe3e 198d 3fbe
000002b0: a302 483e 5b12 4f3f 26fb 15bc f80d 68be
000002c0: 0f24 a5be 05f1 7c3e d4f1 6bbd 43d0 c53e
000002d0: a36c abbe 02dc e5bd 5470 48be df58 89be
000002e0: 1bb2 3abe 3c2d 3b3e 09da 373f a3fe 5f3f
000002f0: e86b ff3d e9bf 983e 9f12 643d 8280 4a3f
00000300: 2c2b 8b3f b127 5d3f 7992 e4bc 72bb 393f
00000310: e76b 6b3e f422 db3e 5f6e d3bd 2482 073f
00000320: 0a01 94be dacd f3be 7ee9 97be c073 e43d
00000330: f695 b93f 1fff 283f 4eb3 d1be 9f01 943f
00000340: 2f85 943e 8126 e23c 03cf c53e 65e0 6bbe
00000350: 0208 303e 2189 cfbe 2fb9 343e 255b c5be
00000360: 9e58 693f a54d a03f f65e 243c 33f6 0a3f
00000370: 3282 463f 44d4 09bf 8d6f 303f 9e94 4b3f
00000380: 731d 8e3e 5758 b53e 1854 d23e 31c0 67be
00000390: 32b5 ca3f dfa4 9a3f aff7 d13d 3400 e43e
000003a0: e5bb 0dbf 8e1c 2b3e eb8d 623c 4177 46be
000003b0: 3e1e 013e ebb0 0c3f abdf 99be 3448 96be
000003c0: d2f0 c13e f48d cd3e 3ce6 b93e a46f eebe
000003d0: 1510 b7be a90c 423e 0bbc bf3f 98c7 5f3f
000003e0: d69d d0bd 688b 123f 4e48 9cbe 73eb 8dbe
000003f0: 1d08 813f 834d 8c3f aaaa 863e d134 163e
-0.39673194 -0.29099318 -0.0031090693 -0.81342995 -0.13854279 0.35953537 0.20326728 -0.21613835
0.087573655 -0.104133286 -0.2907022 -0.50904465 0.65315604 0.18262614 -0.3375869 -0.323839
0.4951243 -0.56529886 0.16129565 -0.26696342 -0.20911747 0.39802065 0.52309513 -0.66426235
-0.08542952 0.16986443 0.4050374 -0.2504599 -0.44239935 0.51622194 0.46837038 0.48154047
0.14420655 0.6027608 0.4581801 -0.3327704 0.22139835 0.23920852 0.19332032 -0.28180203
0.27571124 0.49991742 -0.9625943 -0.76818395 0.14278638 -0.9615542 0.091340065 -0.033777118
0.40660352 0.07853967 0.33389205 -0.1344291 -0.27095646 0.37763667 0.029796232 -0.16686632
0.2599914 -0.087929204 -0.41341114 0.45211843 -0.3279525 -0.5624807 -0.40530652 -0.19032967
-0.47060725 0.25661746 -1.2244412 -0.49573928 -0.07292405 -0.9764211 0.25575763 0.54263246
-0.26646754 0.51160496 0.31427538 -0.041749414 -0.13909076 0.801352 0.24337554 0.4016624
-0.37570578 0.21412462 -0.014582327 0.09820994 -0.11859185 0.16025956 0.25914028 -0.27080646
-0.23343864 0.4132502 0.72841144 0.55784017 0.49668604 0.46389818 0.21165895 0.3711897
0.9133919 0.23560922 -0.087794244 0.15835361 0.30598333 0.8267598 -0.71546996 -0.61366665
-0.113935284 -0.6153727 0.40465975 0.0179151 -0.12245421 0.17787154 -0.34358102 0.16084109
-0.6788365 0.15344322 -0.39573884 -0.72942775 0.23967467 -0.75898886 -0.12285816 1.1995764
-1.2151731 -0.6363343 0.24898449 -1.1825525 -0.29104334 0.526888 0.63010657 0.60934097
-0.013958849 0.21186359 0.30405003 0.7371059 -0.3468515 -0.47979406 -0.46074787 -0.32418323
0.45231953 0.053041577 0.24095996 0.32120854 -0.28514418 -0.018827844 -0.35977608 0.15776978
0.41739377 0.5200394 0.24920544 -0.63505113 0.30076477 0.18560067 -0.98487145 -0.874936
-0.09566966 -1.0861518 0.2248159 0.12103455 0.21088037 -0.26839408 -0.17426188 0.034189656
0.5183688 -0.89601153 0.298618 0.06918913 0.40705207 0.8901358 -0.401869 0.15546787
0.7761299 0.69886893 0.49698454 -0.18706168 0.19532256 0.80887383 -0.009154117 -0.22661579
-0.32254073 0.24701317 -0.057603672 0.38635454 -0.3348132 -0.11223604 -0.195741 -0.26825616
-0.18232004 0.18278974 0.7181707 0.8749792 0.12471753 0.29833916 0.05568182 0.7910234
1.087255 0.8638869 -0.027901875 0.72551644 0.2299038 0.42800105 -0.10323786 0.52932954
-0.28907043 -0.4761799 -0.29670328 0.1115489 1.449889 0.66014284 -0.4095711 1.1562995
0.2900786 0.02760625 0.386345 -0.23034818 0.17190555 -0.4053431 0.17648767 -0.385461
0.91150844 1.2523695 0.010032406 0.5428192 0.7754241 -0.53839517 0.68920213 0.79523647
0.27756843 0.3541896 0.41079783 -0.22631909 1.5836546 1.2081565 0.1025232 0.44531405
-0.5536483 0.16710111 0.013827781 -0.1938143 0.12609193 0.54957455 -0.30053458 -0.29351962
0.37879044 0.40147364 0.36308467 -0.4656955 -0.35754457 0.18950142 1.4979261 0.8741393
-0.10186355 0.5724397 -0.30523914 -0.27718696 1.0080601 1.0961155 0.2630208 0.14668585

input_.bias f4 [256]
00000000: e78b 503d 9673 be3e 1f99 a4be f501 5ebd
00000010: d593 aabe 4d06 b7be 0b26 97be 5cd7 ee3d
00000020: 1a01 93be 54fe 56be ce59 80bd a654 853e
00000030: abff 0cbe 0aef c43e c8df 89be 59a8 9abd
00000040: ad19 5d3e b563 823e d1ba 873e 6f34 283e
00000050: 9229 c63e 8c0c a73e a705 9e3e 4a59 583e
00000060: 68ed dfbd a4cc 603e 770d 61bc d5c7 6dbe
00000070: 11c3 763e c9fe d3be 6d00 77be 19e1 c63e
00000080: 41b5 593e b9e5 f73d 19d9 b63d fef4 14be
00000090: 8011 d53d a0e8 83be ae77 453c 9b8c 38be
000000a0: d3f5 b7be 42ff a03d 8816 133d a68a 2c3e
000000b0: c01a b23d b20f 653b 1ec7 4cbe 2c48 13be
000000c0: 13e8 6f3e 7182 fcbd 62de ff3d 89b3 673d
000000d0: 3fe1 9e3c 31e4 b23d 7266 04be ae72 963e
000000e0: d2de 8bbe 1d94 d43d 5bfc a83e 5703 54bd
000000f0: 8b7b 873d 9e53 a0bd b22c 9e3e 2390 b6be
00000100: f513 803e c655 9cbd 38e9 af3e c442 a7be
00000110: ea8e 863e bd98 96be c18d ca3e 52af b9bd
00000120: 96b5 383e 6ce3 633e 651d 0c3e b7df 22be
00000130: d8ed 1ebe 1704 823e add7 bfbd ec63 2f3e
00000140: a743 eabd 483d b73e 80bf d33d d693 03be
00000150: 11af 52be 10f2 383e 12c7 9c3e 3032 ac3e
00000160: b55b 18be d255 653e 394b b5be efd2 623e
00000170: 166a 973e 9fa9 90be 51a3 e93d dec0 febd
00000180: 1c0d 463e 24c4 9fbd 7233 843e f67d 423e
00000190: 4b3d b43e a95a d53e d213 8d3e 590f 52bd
000001a0: a9a6 4b3e 6f13 f4bd f426 a7be cab9 98be
000001b0: 0dea 8cbe f557 be3e 4a55 38be 812c c13d
000001c0: 72bd bbbe 90eb 43be 0063 a93e 72fa 283e
000001d0: 30c8 a2be 65ba bfbd df10 41be 62f8 38be
000001e0: c479 4cbe 164e 7ebc 0b74 b1bd 7e12 763e
000001f0: 6779 503e f298 f03d ab7d 42be 8b91 5abc
00000200: da37 093d 103f c13d bea7 86be 4f50 74be
00000210: f8c6 973d 49ab 173e 005d 563e ae15 7dbd
00000220: 5a3c 7a3e d26b babd 886b 95be 17d9 843d
00000230: 9244 9ebe 2bb7 7dbd 0b22 a53d ae3f 4dbe
00000240: a8c3 9abd bd0c 68bb 1e60 2c3d 915b 59be
00000250: e9f0 9d3e fe83 d3be d08e 4abe 2b4d 83be
00000260: fe15 eabd 02eb 8a3c d94a 38be dfce 8fbd
00000270: 46e8 ad3d 46ca a33b acdd 81be 8d02 44be
00000280: 3616 9e3e de9e 733e 5271 ae3e 2318 c4bb
00000290: 4a80 603d 2b10 e0be d1ea 8ebe af97 00bd
000002a0: e398 d9bd 43b0 8dbe 5b7c 833e d78a 423e
000002b0: 1427 033e 44cb 453d ed4d f0bc 47b9 97be
000002c0: 8c84 aebe 4884 84be 886d 093e 640f 8dbe
000002d0: c85e 45be 753e 82bd a625 3f3e 0ce5 b03e
000002e0: ca6d 933e 7249 debe a397 623e 4dce b03e
000002f0: 9928 a63e 69a2 8abc 8f34 ca3e 0e83 abbe
00000300: 40c3 0c3e c98e b2be 7de3 cc3e 35ed 6d3e
00000310: 7ba8 a7be c3ff e8bc 2de8 b23e ec51 9abe
00000320: db8e 983e a355 22be 458c 913e 34d6 753d
00000330: 03f0 893e 8e45 8a3e 99ef 853e 7a3b b1bc
00000340: ba0a 0d3e 8234 00be 96b4 b43e aab3 66bd
00000350: af3e 2ebe 26d5 923e b017 65be 5bd6 823e
00000360: ec9d 92bc 761f 1dbe e611 343e 6155 80bd
00000370: 8f39 603e e19c adbe 283e 013e 4e29 a43e
00000380: 704d 20bb 4073 a0be a05b 843d d612 6fbe
00000390: a407 b73d 2d4a 95be ebe3 463d b460 03be
000003a0: 3533 833e 9b72 5f3e de9a adbc 3320 88bd
000003b0: 35b2 afbe 0bbd 73be 4f35 a13e a1c0 733e
000003c0: fcef 923e ba15 90be 9914 403e f8cb 70be
000003d0: 50d3 f53d 1da1 973e 977c 1f3e 97bf 95bd
000003e0: 57d7 0ebe fb54 aabe 8c24 aebe 94fe 5f3e
000003f0: 2a41 ab3e 89ba 203e 7a59 d93d 8601 7d3e
0.05091467 0.3719756 -0.32148072 -0.054201085 -0.33315912 -0.35746995 -0.29521212 0.1166217
-0.28711778 -0.20995456 -0.06267129 0.26041144 -0.13769405 0.38463622 -0.26928544 -0.07551641
0.21591826 0.25466695 0.26509717 0.16426252 0.3870359 0.3262676 0.30863687 0.21127811
-0.109339535 0.21953064 -0.01373612 -0.23220761 0.2409785 -0.41405323 -0.24121256 0.3884361
0.21260549 0.12104363 0.08928127 -0.14546582 0.104037285 -0.25763416 0.01205246 -0.18022387
-0.35929736 0.078611866 0.03591016 0.16849765 0.086965084 0.0034951982 -0.19997832 -0.14383
0.23428373 -0.12329567 0.12493588 0.056567702 0.019394515 0.0873493 -0.12929705 0.2938437
-0.27318436 0.10379813 0.33005032 -0.051760998 0.06615361 -0.07828449 0.30893475 -0.35656843
0.25015226 -0.076335475 0.3435762 -0.32668126 0.2628091 -0.29413405 0.39561275 -0.09066643
0.1803802 0.22254723 0.13683088 -0.15905653 -0.15520418 0.25393745 -0.09367309 0.17127961
-0.11438685 0.3578894 0.1033926 -0.12849364 -0.20574595 0.1806109 0.3062063 0.3363204
-0.14878733 0.22396019 -0.35408953 0.22150777 0.29573125 -0.2825441 0.11408103 -0.1243913
0.19340938 -0.07801083 0.258205 0.18993363 0.35203013 0.4167073 0.27554184 -0.051284168
0.19887795 -0.11917769 -0.32646906 -0.29829246 -0.27522317 0.3717648 -0.18001285 0.094323166
-0.36667973 -0.19132829 0.33083344 0.16501787 -0.31793356 -0.09361724 -0.18854092 -0.180635
-0.19968325 -0.015521547 -0.086647116 0.24030492 0.20358811 0.11747922 -0.18993251 -0.013340364
0.03350053 0.09435856 -0.26299852 -0.2385876 0.07410997 0.14811434 0.20933914 -0.061788253
0.24437085 -0.09102596 -0.29183602 0.06486719 -0.3091169 -0.06194226 0.08063134 -0.20043823
-0.0755685 -0.0035407983 0.042083852 -0.21226336 0.30847862 -0.4131164 -0.19781041 -0.25644812
-0.11429976 0.016957764 -0.17997302 -0.070218794 0.08491568 0.004998478 -0.25364435 -0.19141598
0.3087632 0.23791072 0.34070832 -0.0059843226 0.054809846 -0.43762335 -0.27913526 -0.031394657
-0.10624864 -0.2767354 0.25680813 0.18998276 0.12807876 0.048289552 -0.029334033 -0.29633543
-0.340855 -0.25882173 0.13420689 -0.27550805 -0.19274437 -0.06359569 0.18666705 0.3454975
0.287947 -0.4341541 0.22128157 0.34532395 0.3245285 -0.016923146 0.39493224 -0.33498424
0.13746357 -0.3487456 0.4001731 0.23235019 -0.32745728 -0.02844227 0.3494276 -0.30140626
0.2979649 -0.1585298 0.2842733 0.060018733 0.26940927 0.2700619 0.2615936 -0.021634806
0.13773623 -0.1252003 0.35294026 -0.056323685 -0.170161 0.28678244 -0.22372317 0.25554165
-0.017897569 -0.15344033 0.17584953 -0.06266285 0.21896957 -0.33908752 0.12621367 0.32062763
-0.002446022 -0.3133793 0.064627886 -0.23347029 0.08937004 -0.29158154 0.048557203 -0.12829858
0.25625005 0.21821062 -0.02119201 -0.066467665 -0.3431565 -0.23802583 0.31485984 0.23803951
0.2869872 -0.28141576 0.18757857 -0.23515308 0.12003195 0.29615107 0.15574871 -0.073119335
-0.13949333 -0.3326796 -0.34012258 0.21874458 0.33448154 0.15696158 0.106127694 0.24707612

hidden1.weight f4 [128, 256]
00000000: f6ae c4bc d7f4 4e3d 3701 403d 1d59 143e
00000010: 2dac f9bd a6b9 7f3c 2922 953d 896d 50bc
00000020: 9220 11be 8de5 1ebe 26de 77bd a9cc 863d
00000030: bdf4 7abd 3437 eeba 533b 373d a4bf ca3c
00000040: 47db 8a3b 50cc 893d 8008 473c ab77 fc3d
00000050: 300f a33d 43f6 1fbc 6fca 6dbc 6f44 40b9
00000060: 0845 843d 3436 c8bc 89d3 4b3e 17c9 dd3d
00000070: 2e03 3a3c 3f83 92bd 4692 cdbc 2c37 8b3b
00000080: b355 353d e0d7 efbc 21e4 84bc 419f 103d
00000090: 1e12 8d3d 98ff 0f3d a5e9 3c3c 44dc c03d
000000a0: fac6 44bd 9f38 9a3c 264f 9f3d 3c4d 823d
000000b0: b938 4dbd 3938 53be 0774 fb3d 9ac1 393e
000000c0: 4074 723c 786d ef3d 2223 933a 5c31 12bd
000000d0: 6f7d 9fbc 75dc a0bd d203 db3d ed51 683d
000000e0: b53f 5c3e 69f1 82bd 913d 2dbc 498a 473c
000000f0: 510c 42bd 7583 7d3c 453b 0c3d aa23 1fbe
00000100: e192 19bb ff32 1a3e 6a43 553c b93c 423d
00000110: ca86 68bc e8a6 55bd 22f9 c5bb 4e9e d13d
00000120: a4f4 13bc 6835 093e cba3 943d fed2 82be
00000130: ac3c 6ebd 8313 72bd c180 d5bd e763 8e3c
00000140: 3dd9 423e 1357 a8bc c591 343d 5e78 aabd
00000150: 38ab 3b3d d8e0 813d 52cf 623d f36e acbc
00000160: 059c bb3e 4fb1 083d 5f6d b83d d9b8 9fbc
00000170: 5983 37bb 1dee c9bc 05c9 103b 0a49 24bd
00000180: 164f f53c 27a9 483e b7d9 5a3c 8276 42be
00000190: 74a3 d73c fe9c b5bd dd22 24bd 315e bc3c
000001a0: e998 8a3c 687b 873d 4089 f1bc be6e 633e
000001b0: 1988 653d 23bc c23d 24f8 26be 5a40 7cbc
000001c0: b2fc d6bd 4db1 923e d537 22bd f9e9 9bbd
000001d0: 1046 59bd 0296 c6bd e503 8b3e 9369 66bc
000001e0: 6cf7 253e 0e14 ddbd 01f7 69b9 0613 623c
000001f0: 4bd4 f3bc 6b0a 893d 5221 54be c773 993c
00000200: 7c0a ac3d b0ff 3b3d e083 1fbe a7fe 9ebd
00000210: f0b2 88ba 3c7e b53d 0938 30bc b82e 423d
00000220: 9418 2bbb 40aa 84bd adee 22be 3823 093a
00000230: 6dab 34bd d2c7 9cbe bfdf 8ebd 3258 1ebc
00000240: e244 0abe d159 af3d 4e4e 21bd 3aee 353d
00000250: fce8 9a3d 31b4 a33c 7fd5 36bd f7f7 7b3d
00000260: 6682 aa3d a31e 163e 1c36 fa3d e971 b3be
00000270: 6c80 8a3d 1faf 91bd 0243 59be 0ce1 9d3d
00000280: ebbe 00bd b245 cb3c 39bb babd ad2a adbe
00000290: 6a82 a0bd 0a06 53be bfb2 5b3d 0bca 78bd
000002a0: 4e64 973d 6963 de3a 23ac c0bd 932e 8ebd
000002b0: 8f35 85bd a765 b83d 083e d83c 5932 573d
000002c0: 0fa0 573e 0fa0 33bd 3b0a 523d 1141 bc3c
000002d0: cbc7 8bbd 0820 c53c 0563 873d f943 e33c
000002e0: 1d82 1cbd 7290 febd 53aa a23d 6f00 823d
000002f0: 37ce a63d 3008 4e3d 7e43 3dbc e46b babd
00000300: 5b64 ed3c 41ba 18bc 6b0f 6a3d 1ca1 b0bc
00000310: 5fe3 13be 8a48 9b3d 7e22 0c3d b804 0d3d
00000320: bf11 ecbc a918 293e b796 8f3d 7e53 633e
00000330: 61a6 aebc 7539 bb3d dc7b 2bbd ced5 063d
00000340: 5f35 f73c 9b3a 0fbd 215e 13bc 8d2f 3abe
00000350: bd53 2d3e 9082 863d 615e 033e 7578 4b3d
00000360: 9513 4d3c ee9d 94bd bf3d 84bb c69d 09bf
00000370: e166 df3c bd1d a2bc 694b 48bd c1e7 a83c
00000380: ae36 5ebc a61e 35be e64f 22bd 8fc4 1ebe
00000390: 25b6 443c 8bf9 50bc eeae 913d c92b c93d
000003a0: cec6 823c 95fe 603d e62a 2e3d 2710 c13d
000003b0: ad25 01be 5d47 2abe a499 28bb f137 aebc
000003c0: 1e36 323c 96d8 853e 43bd 3dbd 98b4 783b
000003d0: 85e2 88be 8032 0bbd 2252 413c 77fb aa3e
000003e0: 75ba 473e aa97 c8bd 0d96 903d 2745 de3a
000003f0: 099b 8d3d b74d 25bd e588 cf3c 6c7c a13d
-0.02400921 0.050526466 0.04687616 0.14487119 -0.12191043 0.015608227 0.07281906 -0.012721428
-0.14172581 -0.15517254 -0.06051459 0.065820046 -0.061268557 -0.0018174411 0.04473431 0.024749584
0.0042375657 0.06728423 0.012148023 0.12327512 0.07961881 -0.009763303 -0.014513596 -0.0001833604
0.06458479 -0.024439909 0.19904913 0.108293705 0.011353297 -0.071539395 -0.025094163 0.0042485204
0.044271182 -0.029277742 -0.016222062 0.035308126 0.06888221 0.035155863 0.011530315 0.09417012
-0.04804132 0.018825827 0.07778768 0.063623875 -0.050102923 -0.20626916 0.1227799 0.1814026
0.014798224 0.116908014 0.001122568 -0.035691604 -0.019468991 -0.07854549 0.10694088 0.056718756
0.21508677 -0.063937016 -0.010573761 0.012178966 -0.047375027 0.015473236 0.03423621 -0.15540949
-0.0023433494 0.15058516 0.013016561 0.04742119 -0.0141922925 -0.052161127 -0.006041662 0.10235272
-0.009030495 0.13399279 0.072578035 -0.255516 -0.05816333 -0.05910064 -0.104249485 0.017381622
0.19028182 -0.020549333 0.04408433 -0.083237395 0.045817584 0.06341714 0.055373497 -0.021048998
0.3664247 0.03337222 0.09005236 -0.019497322 -0.0028001873 -0.024649674 0.0022092473 -0.040108718
0.029944938 0.19595776 0.013357571 -0.1899052 0.026323058 -0.088678345 -0.04007231 0.022994133
0.016918616 0.06615335 -0.029484391 0.22210214 0.056037996 0.095085405 -0.16305596 -0.015396202
-0.104974166 0.28650895 -0.039604027 -0.07612986 -0.053045332 -0.096965805 0.2715141 -0.014063257
0.16207665 -0.10794841 -0.00022312628 0.013798481 -0.029764315 0.0669144 -0.20715836 0.018731965
0.08400437 0.04589814 -0.1557765 -0.07763415 -0.0010429304 0.08861968 -0.010755547 0.047407836
-0.002610718 -0.06477785 -0.1591136 0.0005231383 -0.044108797 -0.306212 -0.0697627 -0.009664582
-0.13502839 0.08562053 -0.039381318 0.044416644 0.075639695 0.019983383 -0.0446372 0.061515775
0.08325653 0.14660124 0.12217352 -0.35047844 0.06762776 -0.0711348 -0.21216968 0.0770894
-0.031432074 0.024813507 -0.09117741 -0.33821622 -0.078373745 -0.20607772 0.053637262 -0.06073956
0.073921785 0.0016966882 -0.094078325 -0.06942477 -0.06504356 0.09003764 0.026396766 0.05253825
0.21057151 -0.043853816 0.051279288 0.022980245 -0.06825217 0.024063125 0.06610683 0.027742373
-0.038210023 -0.124298945 0.07942643 0.06347739 0.08144801 0.050300777 -0.011551736 -0.0910261
0.028978517 -0.00932175 0.05714361 -0.021561198 -0.14442204 0.07582195 0.03421258 0.03442833
-0.028817056 0.16513313 0.070111685 0.22199818 -0.02131957 0.091418184 -0.04186617 0.032918744
0.030176817 -0.034968 -0.00899461 -0.18182202 0.16926475 0.065678716 0.12828971 0.049675424
0.012516876 -0.07256685 -0.004035681 -0.5375637 0.027270736 -0.019789571 -0.04890004 0.020618321
-0.013562841 -0.17687473 -0.03962698 -0.15504669 0.012006317 -0.012754808 0.07113443 0.098228045
0.015963938 0.05493029 0.04252138 0.09426909 -0.12612028 -0.16628785 -0.0025726343 -0.02126691
0.01087716 0.26141804 -0.046323072 0.003794944 -0.2673532 -0.033983707 0.011799367 0.33394977
0.19504721 -0.097945526 0.0705987 0.0016957865 0.06914336 -0.040357318 0.025333831 0.0788506

hidden1.bias f4 [128]
00000000: de30 3fbd 34be b8bc 3920 80bc 89f7 503d
00000010: 58b3 1c3d 7ee9 09bd ddbc 38bb 2e03 bfbc
00000020: 1155 8dbc 7cfb ff3c 2fe3 18bd 4f75 7a3d
00000030: 10f6 9abc f25a a8bc 3b6c ae3c 234e 8a3d
00000040: e9b4 00bd 35b9 e33c 9da1 8d3d ddac 11bd
00000050: 4bb7 19bd 7431 1bbc 5d41 e93c c055 003d
00000060: c14b 17bc b741 1bbc dedd 433b 7fa9 773c
00000070: 83bd c6bd 9bdd b13c c22a 0b3d b0b8 7c3c
00000080: 5701 7cbc c0f0 4e3c 208a 8a3d 707a 833d
00000090: 85d9 373d a6c6 a53c 28bd 023d 1c02 bc3b
000000a0: c6a1 acbc 5609 0e3d 287b 493d e830 e8bc
000000b0: 762d 14bd fd8f 333d e19d 36bc b788 393c
000000c0: 6424 0abd 81b1 d03c 5fb3 c33c 6dd2 2c3c
000000d0: fa4c 3cbd bada f83c dfd4 093d 298b 25bb
000000e0: 1e7f 54bd dc27 983c 0683 2c3d 8bcb 823d
000000f0: 181f c53b 1d69 9abd ca3e 93bd b097 95bb
00000100: bf44 753d efd0 3f3d d147 913d 118a a7bc
00000110: 082c 0e3d 3d5d 253d 7c86 163d 143d 0e3d
00000120: e444 2cbc 1a46 393c 3d44 fabc 9ced 093d
00000130: 6d06 09bd 5f2c 02bd aae8 333c ae91 433b
00000140: f702 bbbc 76bb 46bd 1d73 5dbd 4ad6 003d
00000150: 7ee1 12bd ffe3 43bd 441a bc3c af1a f6bc
00000160: 7f67 f9bc 47a5 db3c d641 ec39 edbf 5abd
00000170: 2600 9dba e96c 803d 08e7 2ebc db30 dbbb
00000180: 4ef2 77bc 3336 11bd 358e d9bb dacf 923d
00000190: 7fba 1bbd 0d14 b1bc 19f7 343d cc05 d13c
000001a0: 097c 873d 0500 793d 27c8 143d 2081 ecbc
000001b0: 8a91 51bd f64e 92bd 721e 153d 3a04 863c
000001c0: c1e1 c93b d6de 513d ea45 3a3c e4b9 24bd
000001d0: 971b 1dbd 79b2 1e3d 393b 2cbd 66ea e0bc
000001e0: ed82 6e3d 5800 f63b c89c 0a3d b150 5d3d
000001f0: 9efd bbbc ad96 debb 4870 bebc 5a22 813d
-0.046677463 -0.022551633 -0.015640365 0.051017318 0.038256973 -0.03366994 -0.0028188743 -0.023316946
-0.017252477 0.031247847 -0.037326034 0.06114703 -0.01891616 -0.020551179 0.021291843 0.06753185
-0.03142253 0.027798275 0.06915591 -0.035565246 -0.037528317 -0.00947224 0.02847355 0.031331778
-0.00923437 -0.009476117 0.0029886882 0.015116095 -0.09704115 0.021712115 0.033976324 0.015424892
-0.015381179 0.012630641 0.067646265 0.064198375 0.044885177 0.020236325 0.031918675 0.005737556
-0.021073233 0.034676872 0.049189717 -0.028343633 -0.036176167 0.04383849 -0.01114604 0.011324099
-0.03372611 0.025475265 0.023889242 0.010548216 -0.045971848 0.030377734 0.033650275 -0.0025259948
-0.05187904 0.018573694 0.04211714 0.06386479 0.0060156696 -0.0753958 -0.071897104 -0.0045652017
0.059880015 0.046830114 0.07093776 -0.020451577 0.03470996 0.040372122 0.036749348 0.034726217
-0.010514472 0.011308217 -0.030550117 0.033673868 -0.033453394 -0.031780597 0.010980764 0.002984147
-0.022828562 -0.04851862 -0.05406486 0.031454362 -0.035859577 -0.047824856 0.022961743 -0.03004202
-0.030444859 0.026812209 0.0004506248 -0.05340569 -0.0011978194 0.06270773 -0.010675199 -0.0066891736
-0.0151334535 -0.03545208 -0.006639267 0.07168551 -0.038019653 -0.021616006 0.044180963 0.02551546
0.06615455 0.060791034 0.036323693 -0.028870165 -0.051164187 -0.07143967 0.036405988 0.016359437
0.006160945 0.051237904 0.011369208 -0.04021634 -0.03835639 0.038744424 -0.042048667 -0.02745552
0.05823033 0.007507365 0.033840925 0.05403203 -0.022948083 -0.0067928643 -0.0232469 0.0630538

hidden2.weight f4 [2, 128]
00000000: cd43 593c caab 843e f9f4 853d a985 643d
00000010: a177 a9be f91c 7cbd c494 4f3d 90ea cabd
00000020: 4393 133f 2e5f 6f3d be51 063f f5d3 06be
00000030: 5425 403d 761e 8cbe 70ae 073e 297c 8cbe
00000040: ca53 853e b70a eebd c995 46be 6e1d ad3e
00000050: efa4 843e 497a 2cbe e3a6 fabd 8857 ed3d
00000060: 8027 943c 9007 d93c b679 873e 3b77 d33d
00000070: 3e28 f2be 8fa4 3c3d 7fbe d43d 48a9 1bbc
00000080: 4848 843e 9a2e 5f3e fee8 a6bc 5d49 c43b
00000090: fd63 f0bd 871a cc3e 359b 173e ed1d 943d
000000a0: 084e d73d 1cf5 6a3e 334c 4f3d 84d0 e4bc
000000b0: 7d75 17be c6ed 60be 572d 5dbd 4403 f13d
000000c0: d12b 2b3e 98cc 1b3e e350 0b3e 2af7 6b3e
000000d0: 964f 4cbd 9ae1 e13b d25f 533c af9c c6bd
000000e0: 528d c8bd f564 1a3d 174d 22be c126 113f
000000f0: 83bd 63bd ebbe 25be 0a05 c73d 9687 4b3e
00000100: 396d 41be 3ac1 a7bd bfe1 87bd 4f7d 80be
00000110: 48f8 b9bd b7d6 423d c83f 9cbd e96d da3e
00000120: dc44 12bd d3d1 393e 2587 f63e 223e 26be
00000130: 3402 d43e d0dd 3a3e 54d6 d1bd 2e21 163e
00000140: 8d7b dc3e 6708 24be 5e2c d43e 24da 40be
00000150: c895 0ebe 36b9 afbd 00bd e6bd c4e0 8a3e
00000160: 8770 03be af01 9a3d 8cc7 79bd 2232 f7bb
00000170: 67e7 6dbc d170 833d 1b95 a8bc d907 0f3e
00000180: fa71 16be 4cf8 45bd 21ff 323d 783b 363e
00000190: 755f 0d3e 690b 313f a150 523e 0f70 8cbe
000001a0: 83ef 9f3b e1ce e5bd c1c6 7e3d 6ed5 b03d
000001b0: 2fc9 af3d 96c3 5b3c c556 703c ad72 8abe
000001c0: d8c1 d23d e817 14be 827a 53be 4830 4c3e
000001d0: 71cd 503e 201c 26bd 4d15 3bbe 08f8 0dbe
000001e0: a5ae d3bd 2c18 90bd 0fc0 3d3b 0a1a b13d
000001f0: 5432 9a3e e3da 333e a7dc f93d 4cc9 8dbe
00000200: 1a77 443e 13e0 54be 17a4 b2be b7cc acbe
00000210: 0654 1bbf 1bb1 923e 67ae 8a3e 2ad3 66be
00000220: 89d9 013e 0876 8fbe 8ca3 1fbf 6327 5abe
00000230: 6930 653e d638 a4bd 499c 453e 23f5 e5bd
00000240: f0e3 033e eea0 22be 96d7 00be 74e6 a9be
00000250: a163 23bf 5b63 2c3f 5437 98be 1c96 273e
00000260: cc7d bcbe 1b75 8f3e f2d6 113e 26ab 4cbe
00000270: 0ae8 893e 2e51 a43e 7387 653e 1a3a fabe
00000280: df05 083e 43d9 393e e59a 1e3e 0920 0bbe
00000290: 7aa8 1cbe 3932 e33d c271 d6be 76d5 97be
000002a0: ca84 7a3e eced 8abe 9f2e 6c3e a9bd 813e
000002b0: e191 ce3e 42a4 2bbe 64b5 6cbe a7e3 4d3e
000002c0: e824 71be 928a bc3e 65df 543e 42b6 8e3e
000002d0: dc5c c1bd b69b cabe 364a 293e a7ce 8cbe
000002e0: 4be6 eebe 7770 793e 12f1 7d3e 7b44 073f
000002f0: bbd4 49bf 62df 51be 7017 a0be 2fa7 373e
00000300: 8e3a 04be 06c7 70be 0058 2fbe 4f92 46bd
00000310: dc13 9fbe ceb2 9d3e 554e b1be 5b77 333e
00000320: 57b4 07be 6534 9abe 6135 293e f1a7 e1bd
00000330: 747b 443e bf6e d23e 6381 9c3e 2e7f a83e
00000340: 19cc 37bf 15ad f53e 24c5 e73d 6cb6 583e
00000350: 08f3 35bf 8dda 92be e07c 313e b695 f43d
00000360: e410 4fbe 3978 163e 4737 10be 9ab8 48be
00000370: 089f 47be bfe5 d5be 1630 81be 8807 35be
00000380: 985d a93e 13b5 7a3e 5fab 3bbe 0ed5 623e
00000390: 7834 0fbf c493 b0be 97f1 983d 150e babe
000003a0: 535f 993e 5217 45be 0e47 5fbe b952 8c3e
000003b0: 1dd3 a7be 88e0 89be 5e92 20be 65e0 ef3e
000003c0: 4bda 88be 8ee4 95be 2e21 31be e8cd a03e
000003d0: 7141 17bf 3278 7ebe cd28 7cbd 6d48 77be
000003e0: 6d62 943e b18d 47be c948 67be 34d4 a93e
000003f0: cc7e de3d 44d9 9f3e 843d 163e d4fb c23e
0.013260794 0.25912315 0.065408655 0.05579153 -0.33099082 -0.061551068 0.050678983 -0.099080205
0.5764658 0.05844038 0.5246848 -0.13166793 0.0469106 -0.2736699 0.13250136 -0.27438477
0.26040488 -0.116231374 -0.19393076 0.33811516 0.25907084 -0.16843523 -0.12238862 0.11588961
0.018085241 0.026492864 0.26460046 0.10325476 -0.47296327 0.046055373 0.10387897 -0.009500809
0.25836396 0.21795121 -0.020374771 0.005990191 -0.11737821 0.3986399 0.148053 0.072322704
0.1051293 0.22945064 0.05060978 -0.02793146 -0.14790912 -0.21965703 -0.053998318 0.11768201
0.16715933 0.15214765 0.13605075 0.23043504 -0.049880587 0.006893349 0.012901263 -0.09697854
-0.0979258 0.037693936 -0.1584972 0.5669976 -0.055600654 -0.1618611 0.09717758 0.1987594
-0.18889321 -0.08191152 -0.066348545 -0.25095603 -0.09080559 0.04756805 -0.07629353 0.4266198
-0.0357102 0.18146448 0.48149982 -0.1623464 0.4140793 0.18248677 -0.10245958 0.14661095
0.43063012 -0.1601883 0.414401 -0.18833214 -0.13924325 -0.08580248 -0.11266518 0.27124608
-0.12835895 0.07519852 -0.06098132 -0.007543818 -0.014520503 0.064180024 -0.020578912 0.13967837
-0.14691916 -0.048332497 0.04370034 0.17796123 0.13805945 0.69158036 0.2053857 -0.27429244
0.004880847 -0.112211 0.062201265 0.086344585 0.085832946 0.013413331 0.014669125 -0.27040616
0.10290879 -0.14462245 -0.20652202 0.19940293 0.2039087 -0.040554166 -0.18269844 -0.13864148
-0.10336045 -0.070358604 0.0028953587 0.08647545 0.30116522 0.17563967 0.12200289 -0.2769264
0.19186059 -0.20788603 -0.34890816 -0.33749935 -0.60675085 0.28650746 0.27086183 -0.2254149
0.1268064 -0.28019738 -0.6235893 -0.21304087 0.22381748 -0.08018653 0.192979 -0.11228397
0.1287992 -0.15881702 -0.1258224 -0.33183634 -0.63823897 0.67339104 -0.29729712 0.16365856
-0.36814725 0.28019032 0.14242151 -0.19987163 0.26934844 0.32093185 0.22414951 -0.48872453
0.1328349 0.18149285 0.15488775 -0.13586439 -0.15298644 0.110935636 -0.41883665 -0.29655045
0.24464718 -0.27134645 0.2306466 0.25340012 0.40345672 -0.16761878 -0.2311607 0.20106374
-0.23549235 0.3682447 0.20788343 0.27873427 -0.0944154 -0.39571923 0.16532215 -0.27501413
-0.46660075 0.24359308 0.24798992 0.5283887 -0.78840226 -0.2049537 -0.3126788 0.17934869
-0.12912962 -0.23513421 -0.17123413 -0.048479374 -0.3106984 0.3080048 -0.34630075 0.17525999
-0.13252388 -0.301181 0.16524269 -0.110183604 0.19187719 0.41100118 0.30567464 0.3290953
-0.71795803 0.47983614 0.113168985 0.21163338 -0.7107396 -0.28682366 0.17332792 0.119426176
-0.20221287 0.14694299 -0.14083587 -0.1960167 -0.1949426 -0.41776845 -0.25232 -0.17678654
0.3307922 0.24483137 -0.18327092 0.22151586 -0.55939436 -0.34487736 0.074679546 -0.3633887
0.2995554 -0.19247177 -0.21804449 0.27406862 -0.32778254 -0.26929116 -0.15680835 0.46850887
-0.26729044 -0.29275936 -0.17297813 0.31407094 -0.5908423 -0.24850538 -0.06156235 -0.24148722
0.28981343 -0.19487645 -0.22586359 0.3316971 0.10864028 0.31220448 0.14671904 0.38082755

hidden2.bias f4 [2]
00000000: 054b a4bc 9d29 3cbd
-0.020055303 -0.045938123
