themodel.pt (torch_old, 49884 bytes, 6 tensors)

input_.weight f4 [150, 28]
00000000: 2162 85bf 3569 8fbf b671 d23d 5b0c c2be
00000010: 119f e8be 3d0c b9be 4368 98be 558f 22bf
00000020: a2a1 e6be 8238 3cbe af3a 65be c1bd 14be
00000030: 07c0 7cbf 6f49 57be 8faf 2abe 229e 1fbe
00000040: 64ab 6ebe f50b 30bf 8116 70be 5806 7bbe
00000050: b35e 02bf 6f07 debe db0d 28bf 91b3 42be
00000060: 2df6 febe 3922 b4be 83b9 c2be b345 fbbe
00000070: 487a a1bf 52fd a2bf 783e 5f3d b7f8 17bf
00000080: 01b2 dfbe 4d1b 7fbe 3bcc 6abe 50e2 4dbf
00000090: 1e86 e8be 4c4e 12bf 07d3 e2be de9a f7be
000000a0: eab7 98bf 3bf2 04bf 83b0 b3be f457 dcbe
000000b0: 375d efbe 158a 58bf 7356 babe b427 f3be
000000c0: 4862 86be 9d34 88be 74d8 3ebf 4a57 03bf
000000d0: ff65 0abf 0718 babe dd91 09bf 100f f5be
000000e0: 4590 b4bf c2f2 9cbf c2c5 d23d d475 f6be
000000f0: bea7 70be e0ce b0be a3b9 16bf 0179 28bf
00000100: 937f 07bf ed55 05bf f835 82be 49c8 87be
00000110: f582 81bf 976c cdbe 0ed6 0dbf e9e9 e3be
00000120: 1b4f e2be 7985 13bf 93e2 0fbf 750b 09bf
00000130: 8546 7ebe 7098 ddbe 66b0 32bf 8794 6dbe
00000140: 000d 8ebe 4b87 13bf 8e07 7cbe 9978 1abf
00000150: 6b73 6bbf 9914 3abf bd5a 0bbe 20e5 51be
00000160: a25f d0be 252d 4ebe 6bd1 31be 7c35 85be
00000170: 0d9a c5be d443 86be b938 aabe 7424 e6be
00000180: 902b 02bf 491f e4be fa07 f7be ee50 45be
00000190: 7015 f3be bd28 1fbf 18a8 93be 11ef ddbe
000001a0: f8ca 03bf c557 73be 1a0e bfbe 7b73 f3be
000001b0: 5139 1abe d794 06bf 63c9 fabe 26ea a3be
000001c0: e1de 8ebf 2682 5bbf 67e5 d8bd fa71 d0be
000001d0: 3c4f a7be d2f2 bdbe f6c6 95be efec 72bf
000001e0: 2b5d 45be 659f 1abe e012 60be ffb3 8abe
000001f0: 821d 19bf b7b3 8ebe fb29 e5be 6d50 babe
00000200: dde4 85be 70a7 10bf 0714 2fbe b954 8fbe
00000210: 3469 ffbe de8d 2ebe 3331 1bbf 5c21 70be
00000220: a852 adbe 06e7 efbe e222 e9be e6cd 05bf
00000230: 3613 83bf 847b 5cbf 40e7 5e3b f001 69be
00000240: 048c 08bf a241 b0be d14b aebe c7f4 98be
00000250: 877d 2ebe 6548 81be 3844 00bf 2228 2cbe
00000260: d4e2 77bf 3dbc c0be 4138 c5be a148 65be
00000270: 8898 99be 11b9 2cbf 43c2 e7be 3a15 c3be
00000280: e00d 02bf 587c 84be 40d4 26bf 48bc 7cbe
00000290: c94e d0be d5ef d3be c800 6cbe f946 9abe
000002a0: af61 8bbf 441a 7cbf 484c 2bbd 82c7 b8be
000002b0: b00f 90be d45b 0ebf 42dd c3be ba5c 05bf
000002c0: af01 79be 96b7 05bf d1fd 90be cf4d 66be
000002d0: a380 40bf 6462 f1be b476 94be 15ee fabe
000002e0: b5de debe 8388 0cbf 62b3 a5be cf44 6ebe
000002f0: 9c00 09bf b758 edbe 93cf 2bbf e14e 7bbe
00000300: 8a49 b5be 0ecc aabe ce4b f3be bcb0 0ebf
00000310: 862c 3fbf 5172 8dbf eeb7 1abe 7683 c2be
00000320: e049 bcbe 83c5 d9be 498b 3ebe da3c febe
00000330: 6721 2cbe d166 bbbe eb1f cbbe a1a4 01bf
00000340: 32d7 5abf 15a7 efbe 1afa ebbe 8fb1 c5be
00000350: d0e0 83be d3f8 eebe 6aaa b3be bd92 cdbe
00000360: 2748 b9be b18a 62be 5e1b 23bf c79a 74be
00000370: c8ab 86be e49a ebbe f2f4 cbbe 04f4 85be
00000380: 5946 39bf 3a27 66bf b0a1 2abd 4e9e abbe
00000390: ed57 0abf 6812 4cbe 6caf 62be b3cf 87be
000003a0: ac8f b6be 2a88 03bf 386c 39be a906 f7be
000003b0: 32ed 34bf f03c b4be d017 92be 233f a3be
000003c0: 9b4f b9be 8652 d5be c86c e6be 17b9 a4be
000003d0: 699a d6be aee3 cfbe 848b bbbe 0ffa 96be
000003e0: 4e27 8abe eb62 debe b34f 06bf 4a14 d4be
000003f0: b2ce 0ebf fab5 02bf c68d 943d c675 7bbe
-1.0420572 -1.1203982 0.10275595 -0.3790005 -0.45433858 -0.3614215 -0.29767045 -0.6349996
-0.4504519 -0.18380931 -0.22385667 -0.1452551 -0.9873051 -0.21024106 -0.16668533 -0.15587667
-0.23307568 -0.68768245 -0.23446085 -0.24514139 -0.5092575 -0.43365046 -0.6564614 -0.19013812
-0.49797192 -0.3518236 -0.3803216 -0.49076614 -1.2615442 -1.2733557 0.054502934 -0.59363884
-0.43690494 -0.24912758 -0.2292947 -0.8042345 -0.45414823 -0.5715072 -0.44301626 -0.48360342
-1.1931126 -0.51932114 -0.35095605 -0.43035853 -0.46750805 -0.84585696 -0.3639408 -0.4749123
-0.26246858 -0.2660264 -0.7454903 -0.5130507 -0.54061884 -0.36346456 -0.53738195 -0.47863054
-1.4106528 -1.2261584 0.102916256 -0.4813677 -0.23501489 -0.34532833 -0.5887701 -0.6580964
-0.5292904 -0.5208424 -0.254318 -0.26519993 -1.011809 -0.4012191 -0.55404747 -0.44514397
-0.44200978 -0.5762554 -0.562051 -0.5353311 -0.24831589 -0.43280363 -0.6980041 -0.2320119
-0.27744293 -0.57628316 -0.24612257 -0.6034027 -0.9197299 -0.7268768 -0.13608833 -0.2049756
-0.40697962 -0.20134409 -0.17365043 -0.26017368 -0.38594094 -0.26223624 -0.332464 -0.44949687
-0.5084772 -0.4455512 -0.48248273 -0.19269153 -0.47477293 -0.62171537 -0.28839183 -0.43346456
-0.5148158 -0.2376395 -0.37315446 -0.47549042 -0.15060927 -0.5257086 -0.4898177 -0.3201458
-1.1161767 -0.85745466 -0.1059063 -0.40711957 -0.3267764 -0.3709932 -0.29253358 -0.9489278
-0.19273822 -0.15099867 -0.218822 -0.2709045 -0.5981065 -0.27871487 -0.4475859 -0.36389485
-0.2615117 -0.5650549 -0.17097484 -0.27994326 -0.4988495 -0.17046306 -0.6062195 -0.23450226
-0.33852124 -0.46855944 -0.45534426 -0.522673 -1.0240238 -0.8612597 0.0034012347 -0.22754645
-0.53338647 -0.34425074 -0.34042218 -0.2987425 -0.17040072 -0.25250545 -0.50104094 -0.16812184
-0.9683049 -0.37643614 -0.3851948 -0.22390987 -0.29999185 -0.6746989 -0.45265397 -0.38102132
-0.5080242 -0.25876117 -0.6516762 -0.24681199 -0.40685108 -0.41393915 -0.23047173 -0.30132273
-1.0889186 -0.9847758 -0.041820794 -0.36089712 -0.2813697 -0.5560887 -0.38254744 -0.52094615
-0.24317048 -0.52233255 -0.28318647 -0.22490619 -0.75196284 -0.4714538 -0.28996813 -0.49009767
-0.43529287 -0.548958 -0.3236342 -0.23268436 -0.53516555 -0.46356747 -0.6711361 -0.24541809
-0.35407668 -0.33358806 -0.47518772 -0.55738425 -0.7467731 -1.1050512 -0.15109226 -0.37990922
-0.36775112 -0.42533502 -0.1860782 -0.496558 -0.16809617 -0.3660188 -0.3967279 -0.5064183
-0.8548461 -0.4680716 -0.4608925 -0.3861203 -0.25757456 -0.46674213 -0.35090953 -0.40151015
-0.3618786 -0.22123219 -0.63713634 -0.23887168 -0.26302934 -0.4601661 -0.39835316 -0.26162732
-0.72372967 -0.89903605 -0.041658103 -0.33519214 -0.54040414 -0.19928896 -0.2213723 -0.2652565
-0.35656488 -0.51379645 -0.18107688 -0.4824727 -0.7067443 -0.35202742 -0.28533792 -0.31884107
-0.36193547 -0.41664523 -0.45004869 -0.32172462 -0.4191468 -0.40603393 -0.3662988 -0.29487655
-0.26983112 -0.43434843 -0.5246536 -0.4142173 -0.5578414 -0.51058924 0.07253604 -0.24556646

input_.bias f4 [150]
00000000: dff2 5fbf b730 a4bf fad2 a0bf 617f 1cbf
00000010: 95d2 2abf b964 87bf 5e07 5abf eaf4 5dbf
00000020: 4f6e 3abf bc31 5bbf ed17 12bf ba93 68bf
00000030: 6492 02be 6a6c 86bf e26e 85bf a99e 5fbf
00000040: 440a 44bf 9818 58bf a124 4cbf 903b a4bf
00000050: 7429 88bf 1dfc 83bf 5fbf 72bf 4058 5bbf
00000060: e759 21bf 9b07 8bbf 6cc6 b13d 9d3a 6fbf
00000070: 3d0c 88bf 67b7 8fbf 3c2a 9bbf 8518 8fbf
00000080: cc25 7cbf a13f 88bf d818 3cbf 18db 5bbf
00000090: 649d 83bf fac6 58bf c0a9 40bf d77f 82bf
000000a0: 5c06 50bf 2f1b 9abf ccdf 98bf 5721 81bf
000000b0: 634e 48bf 673c 9dbf b24a 34bf 07fc 81bf
000000c0: d104 90bf a749 acbf dc1e 80bf f519 65bf
000000d0: bbd9 9abf 92e6 48bf e6ef 46bf 0bb4 8ebf
000000e0: 9a32 88bf a22a 91bf 14ea 83bf fd26 24bf
000000f0: 5862 96bf 2950 3cbf 257c 24bf d939 abbf
00000100: 5ea0 4abf f7a2 85bf fdc4 8cbf 3c74 0cbf
00000110: 9103 27bf 59dd 19bf cd72 94bf 01bf 7ebf
00000120: 8bcd 81bf a4ef bdbe da52 a0bf 53ec 93bf
00000130: 0472 62bf c0c9 41bf 6fc2 6fbf fd58 1ebf
00000140: a64c 91bf fd26 87bf 6980 6abf d5d3 93bf
00000150: 9bb0 6bbf 21a9 a6bf b1ee 84bf 42c3 34bf
00000160: 0744 43bf 7601 89bf 6bad 64bf 250c 73bf
00000170: af19 72bf 1b80 9ebf 3c72 3dbd 6bd6 98bf
00000180: 5bbd 4abf 1f7f 2cbf 80f0 58bf 27f6 8bbf
00000190: 4811 a4bf f049 93bf 8a15 80bf ed1d 88bf
000001a0: 6f7b 6bbf 0a5f 85bf 46b1 87bf dc65 95bf
000001b0: 571f b9bf b642 8ebf b688 43bf 921e 90bf
000001c0: 884f 9fbf abb6 37bf 237e a9bf 70fa 97bf
000001d0: eee3 b8be 85d0 7ebf 11fc b5be 1e87 21bf
000001e0: 5259 6fbf be0c 3fbf 557a a7bf 3801 a9bf
000001f0: 0b78 81bf 4283 8cbf 5481 6bbf 9a78 66bf
00000200: 5564 70bf a79f 53bf f56b 92bd f7fe 84bf
00000210: 9d5a 9ebf ce88 64bf 9171 64bf f92b 74bf
00000220: a717 96bf 1e98 2abf 57a0 4bbf f016 4abf
00000230: d25d 8ebf 8ea3 53bf 573f 8fbf b8b7 83bf
00000240: cddc 4cbf 0426 20bf 4fef 8ebf ee1e 7fbf
00000250: 5a67 23bf 90ee 64bf
-0.87479967 -1.2827367 -1.2564385 -0.61131865 -0.6672757 -1.0577613 -0.8516749 -0.86701834
-0.7282457 -0.85622764 -0.5706776 -0.9085041 -0.12751156 -1.0501835 -1.0424464 -0.8735147
-0.76578164 -0.8441253 -0.7974339 -1.2830677 -1.063765 -1.0311314 -0.9482326 -0.85681534
-0.63027805 -1.0861696 0.08680424 -0.9344881 -1.0628735 -1.1227845 -1.2122264 -1.1179358
-0.98495173 -1.0644418 -0.7347541 -0.85881186 -1.0282407 -0.84678614 -0.7525902 -1.0195264
-0.81259704 -1.2039546 -1.1943297 -1.00883 -0.7824461 -1.2284058 -0.70426476 -1.0155038
-1.125147 -1.3459977 -1.0009418 -0.8949273 -1.2097696 -0.7847682 -0.77709806 -1.1148695
-1.0640442 -1.1341136 -1.030581 -0.6412199 -1.1748762 -0.73559815 -0.6425193 -1.3377029
-0.7915095 -1.0440358 -1.0997616 -0.5486486 -0.65239817 -0.60103375 -1.1597534 -0.995102
-1.0140852 -0.37096894 -1.2525284 -1.1556495 -0.88455224 -0.7569847 -0.9365606 -0.61854535
-1.1351516 -1.0558773 -0.9160219 -1.1549021 -0.92066354 -1.3020364 -1.0385343 -0.7061044
-0.76275676 -1.0703571 -0.89327115 -0.94940406 -0.9457044 -1.2382845 -0.04625152 -1.1940435
-0.79195184 -0.6738147 -0.84741974 -1.0934495 -1.2817774 -1.1506939 -1.0006573 -1.0634133
-0.9198522 -1.0419629 -1.0600975 -1.167171 -1.4462689 -1.1114109 -0.7638048 -1.1259329
-1.2446146 -0.71763104 -1.3241619 -1.1873302 -0.36111397 -0.99536926 -0.35543874 -0.630968
-0.93495667 -0.7462882 -1.3084208 -1.3203497 -1.0114759 -1.0977557 -0.91994214 -0.90027773
-0.93903095 -0.82665485 -0.071494974 -1.0390309 -1.2371403 -0.8927125 -0.8923579 -0.95379597
-1.1725968 -0.6663836 -0.79541534 -0.7894125 -1.1122382 -0.8267144 -1.1191205 -1.0290442
-0.80024415 -0.6255801 -1.1166781 -0.9965657 -0.63829577 -0.8942652

hidden1.weight f4 [50, 150]
00000000: 5946 123e 7594 1e3e 1472 683d 1b15 2a3d
00000010: 4c74 073e 719a 1a3d 2583 dc3d b170 ff3c
00000020: ec53 de3d 94ce d23c b7d1 9d3d d8d3 063e
00000030: fca5 81be 1fc8 1c3e ebf3 8f3d 5359 16bd
00000040: 3783 023d c0e8 123d 30b2 993c 57a9 1b3e
00000050: e2ca 093e 9495 95bc fece 3b3c f428 efbc
00000060: 8178 c73d 05fe 353c e39e 3ebe 34cf 823d
00000070: bca5 283c db59 093d 3f80 d23d 77c0 603d
00000080: 7e65 a93c 7e94 0c3e 32db 7e3d 6fb3 bbbc
00000090: e871 dd3c 1b17 fe3d 5e9c 4e3d fe7d 243e
000000a0: 7fa9 9b3d 9476 c13d 079a 193e e7f8 ae3c
000000b0: 2fe1 163d f416 f33d cdbb dd3c 8930 bfbc
000000c0: 3c8c 223d ee11 3e3d cfa0 5b3c bdba c53c
000000d0: 2f5b cb3d 4a18 ee3d a17e 013d 6bd3 803d
000000e0: 2888 c13d e5fa 483d 5a52 043e 5602 bbbc
000000f0: b7f9 b13d 3a72 fe3d 81fc 3c3d eee8 be3d
00000100: 3203 7b3b 64ba cd3d 9570 643d 6c96 433c
00000110: b551 48bd 6499 b83d 7c06 ac3d 280e 553e
00000120: a81f 033d fb81 2c3e f950 ee3d 2f1c 343e
00000130: fc45 e03c 16e1 123e 3ed5 7a3d f423 83bc
00000140: 7d5b 193e 3376 473d 5b07 fdbb 371e 1f3e
00000150: 6515 043e edcf df3d 92ae cd3d f143 233e
00000160: c5a5 0f3e 58b7 043e a842 8b3d 10fa 623d
00000170: f18a 763c f508 0b3e 66fb 563d e395 1d3d
00000180: bf7f b13c 4eca 153d 60e6 033e 4b0c 643d
00000190: 74dc 1f3e 84ca a33d 9f35 f73c 490b ff3d
000001a0: 9853 603d b2b1 553c 7bda 2b3e 3662 fd3d
000001b0: 9ee0 073e 22b0 caba 41c6 053d 278a 003e
000001c0: daa8 063e bf5d 993d eb69 bc3d 62d5 193e
000001d0: e751 533c 757e a53d 6aee 03bd 6e67 333e
000001e0: fe48 763c 822f 5d3c 0ca3 3c3d 9ad0 773d
000001f0: 37a9 003e 8ac9 2d3e faaf b13d 5cb6 f63c
00000200: 5b84 783b aecd d93d 1745 353e ead3 c53d
00000210: 52bc 453d 825c 483d cfe4 cc3c 13e3 893d
00000220: 80ad f13d d6c3 b03d 0230 953d 4e7e ba3b
00000230: 3787 9d3c c48a 113d 9d51 503d e6cd ce3d
00000240: 6987 4c3d bbbf b13d 97e9 923c b280 093e
00000250: 5c7a e33c b342 1e3d e41b f43c cb6a 8f3d
00000260: 9e40 9dbc d62f 153e 0148 1a3e d4af 223d
00000270: 32d9 cb3d 86d3 003e 66ba 963d 7a7b 7e3d
00000280: 8ec0 ed3d 9b93 f9bb f8cc d43e 918a 373d
00000290: 6520 c33d 7ca3 e13d a6ca 833c ee00 df3b
000002a0: 6d15 343d d6ce 8b3d 75fc 7b3d f435 c23d
000002b0: e073 053d fdd4 8e3c 27c8 0c3e f9b7 d63c
000002c0: 58bd 8ebc cb42 ff3d 8d43 3f3d 6083 283c
000002d0: 8aed 483d 4dab 7b3d d6a1 143e 7fab 533c
000002e0: ebc1 ba3c 2966 173e 76c8 adbb 189a 4c3d
000002f0: be9f 373d 4af6 003e 9867 a4bb 2d73 f83d
00000300: 8cf1 2d3d 02b0 b83d 9e60 ad3d 215f 933b
00000310: 03e8 873d ae5e 283d c7c8 593c 7c2f 3cbc
00000320: f9d6 46bb ddee c93d c530 f63d 4157 133e
00000330: 9f2e 003e a72b ad3d 525b c53d ef36 ee3c
00000340: 02a7 7f3d 83a4 203d 9f67 363c 8928 923d
00000350: 8a82 263d 5c92 353d 9507 db3d 8edb f03d
00000360: 532d 503d 1b1d 8c3d 7f20 a53d 860b 0e3e
00000370: dfcc bd3d 2b07 173d d229 afbc 2613 c83d
00000380: 1a32 063d 931a 933d 98e5 173e a355 9e3d
00000390: 21b9 123e d980 d83d 345d 9c3d 6ac6 143e
000003a0: 6c1e 1e3e 1dbc b13c 6244 343d 204e 923c
000003b0: 91a1 0a3c e97d 3b3e 27ec 993d e103 c33d
000003c0: 1a9d 64bc 58ac 0c3e 1429 fb3c 8b9a c93d
000003d0: 8135 cbbd 7a0b 8f3d dfd0 193e d036 473d
000003e0: 2414 b73c bd38 803c 2714 113e dc15 063e
000003f0: e11a 0d3d a0e0 653c 1c5e d73d deee 4cbc
0.14284648 0.1548632 0.05674942 0.041524034 0.13227957 0.037744943 0.10767201 0.031181665
0.108558506 0.02573327 0.077060156 0.1316675 -0.2532195 0.15310715 0.070289455 -0.03670628
0.031863417 0.0358665 0.018761724 0.15201317 0.134563 -0.018259801 0.011462925 -0.029194333
0.09739781 0.011107926 -0.18615298 0.06387177 0.01029342 0.03353296 0.10278367 0.05487105
0.020678278 0.1372852 0.06222076 -0.022912709 0.027031854 0.12406751 0.050442092 0.16063687
0.07600688 0.09446445 0.15000163 0.02135892 0.036835846 0.11869612 0.02706709 -0.023338573
0.03968452 0.046403818 0.013405039 0.024136895 0.09929501 0.116257265 0.031614903 0.06290325
0.09449798 0.049067397 0.1292204 -0.022828262 0.086902075 0.12424131 0.046139244 0.093217716
0.0038301465 0.10045317 0.05577143 0.011937719 -0.048906047 0.09013632 0.08399674 0.20806181
0.03201261 0.16846459 0.11636538 0.17588876 0.027377121 0.14343676 0.06123852 -0.016008355
0.14976306 0.048696708 -0.007721824 0.1553887 0.12898786 0.109283306 0.10043062 0.15943886
0.1402808 0.12960565 0.06799823 0.05541426 0.015047775 0.13577636 0.052485846 0.03847302
0.02166736 0.036569886 0.1288085 0.055675786 0.1561144 0.07997611 0.030176936 0.12453324
0.05476722 0.013042854 0.16782562 0.12372248 0.13269278 -0.0015463869 0.032659773 0.12552701
0.1315035 0.07488584 0.0919989 0.15022805 0.012897945 0.080807604 -0.03220979 0.17519924
0.015032051 0.013500096 0.04605393 0.060501672 0.1256455 0.16971412 0.08676143 0.030116253
0.0037920687 0.106349334 0.17702137 0.0965956 0.0482753 0.048916347 0.025011448 0.06732764
0.118006706 0.08631103 0.072845474 0.005691326 0.019229515 0.035532728 0.050859082 0.10097866
0.049933825 0.08679148 0.01793365 0.13428 0.027768306 0.038637828 0.029798456 0.07002791
-0.019195851 0.14569029 0.1506653 0.039718464 0.09953536 0.1258069 0.073597714 0.062129475
0.116089925 -0.007616473 0.4156263 0.04480988 0.09527663 0.1101751 0.016087841 0.0068055307
0.043965746 0.0682656 0.06152006 0.09482947 0.03258121 0.017435545 0.13748227 0.026210772
-0.01742427 0.124639116 0.04669528 0.0102852285 0.04905466 0.061442662 0.1451486 0.012919306
0.022797545 0.14785065 -0.005303438 0.049951643 0.044830076 0.12593952 -0.005017232 0.12131343
0.042466685 0.09017946 0.08465694 0.0044974242 0.066360496 0.04110592 0.013292498 -0.0114859305
-0.0030340536 0.09860013 0.12021021 0.14388753 0.12517785 0.08455592 0.096365586 0.029078929
0.06241513 0.03921939 0.011133104 0.07136638 0.040651836 0.044329032 0.106948055 0.11760627
0.050824475 0.06841489 0.08062839 0.13871583 0.09267592 0.03687207 -0.021382246 0.09769277
0.032762624 0.07182803 0.14833677 0.07731178 0.14328434 0.10571451 0.076349646 0.14528814
0.15441293 0.021696145 0.044010527 0.017859519 0.008461372 0.1830975 0.075157456 0.09522224
-0.013953472 0.13737619 0.030659236 0.0984393 -0.099223144 0.06984611 0.15021084 0.048636258
0.022348471 0.015652055 0.14167844 0.13094276 0.03444946 0.014030606 0.10515997 -0.012508122

hidden1.bias f4 [50]
00000000: 2f4d 223e 76a7 8d3e 067e a43e b5fc 323e
00000010: 1025 603e 1945 b03e 7004 6e3e 6f18 663e
00000020: 61f9 603e 5d5e c73e 7db2 213e 9353 7b3e
00000030: 2934 543e 5e0e 173e 6314 9c3e fba0 853e
00000040: 4b79 a33e adea a73e ac89 8c3e baa8 dd3e
00000050: 844e 993e 7a0a bd3e 505a 953e 09b3 df3e
00000060: 9ddb 6c3e 361c d03e f2b5 823e 795e 663e
00000070: 2591 9f3e 2177 9e3e d198 863e e6fc 603e
00000080: 91a7 8c3e 89f1 8b3e 7ac9 9f3e b6e1 7c3e
00000090: c0b1 703e 8b6c 8b3e ca1e ab3e 70ee 883e
000000a0: b337 b03e 6ab9 543e 9d13 873e 4ad9 463e
000000b0: 4518 8b3e d0cc 5e3e f339 793e 3a2f 6a3e
000000c0: be2c 733e 9218 283e
0.15849756 0.27666825 0.32127398 0.17479213 0.21889138 0.34427717 0.2324388 0.22470258
0.2197013 0.3893918 0.15790744 0.245436 0.20723023 0.14751574 0.30484304 0.2609938
0.31928477 0.3279623 0.27448785 0.4329279 0.29942715 0.36922055 0.29170465 0.4369128
0.23130651 0.40646523 0.25529438 0.22496976 0.31165424 0.30950263 0.26288465 0.21971473
0.27471593 0.27332714 0.31208402 0.24695477 0.23505306 0.2723125 0.33421928 0.26744413
0.34417495 0.20773855 0.2638215 0.19418827 0.27166954 0.21757817 0.24338512 0.22869578
0.23747537 0.16415623

hidden2.weight f4 [6, 50]
00000000: 820e 2c3c f3c5 b2b9 ae72 bebd 5ad9 82bc
00000010: 09a1 d7bc 2588 84bc 942f e6bb ea69 e1bb
00000020: 3993 d7bc 106d c1bd a186 e03c f4b1 d1bc
00000030: 33db 953d 740f 57bd 96c8 5fbc de26 b4bc
00000040: 3845 bcbc 07b4 2d3b 8a6b 24bc 955a 013c
00000050: dcb5 86bd 039f b6bc 5f9e c2bb 4214 0bbc
00000060: d0f5 fc3b 1765 85bc 8518 15bb a471 4ebb
00000070: e87d aebc a570 e1bb 47fc 2a3c 86a4 d3bc
00000080: 417b 9dbc 4c78 fabc 7d09 41bc b18c d03b
00000090: 0e8f 37bc 5a11 44bc d94a 55bd b4c7 813c
000000a0: 3c4d deba 5a35 32bb 31e9 a8bc 02a8 9ebc
000000b0: 2fe2 953c f40a ffbb c028 82bc e60a eabc
000000c0: 3e50 d8bc 4915 a9bc 0d30 643d 5f02 e5bc
000000d0: 2ede 7abd 597a 00bd 7079 9dba 0758 7bbd
000000e0: 304b 1fbc 1153 d53a c8c3 82bc 17ed c2bc
000000f0: 838a 0ebb a20b 233d 455a 823d ae63 3ebd
00000100: 9ca3 ebbc 971d 4fbb 7bcb 85bd e880 8ebc
00000110: c68b 0abc 58f9 bbbc 6c7a 9bbc c099 3ebc
00000120: f024 8fbc 3327 65bd 317f a23a 0294 48bd
00000130: 37f8 5cbd f793 40bd c247 4f3c ba11 0cbc
00000140: be34 20bd d6d5 51bd c00f cdbc 3b8c c8bc
00000150: 35fd a8bc 98c4 dabc 4d4e 39ba e3f5 18bd
00000160: e4fe 52bd 1e4b a9bc ff9f 6a3b b0bc 23bc
00000170: 32ee 96bc 11ef 08bd 062a 963d 5d17 9d3c
00000180: 8c7f 14bc d348 243b 6731 19bd 8fde 373d
00000190: d176 62bd 2c7f 993c 66e0 a03c a966 68bb
000001a0: f9e7 38bc 9b74 ac3c ba2a ccba bfe6 b13b
000001b0: c7aa 44bd 6393 e3bc ee9f 003d c657 51bd
000001c0: 8c42 ec3c 7d6d 623c e035 313d 0d42 d9bc
000001d0: f784 e0b9 32bc 4b3c ea4e b7bc 1e41 d2bb
000001e0: ee96 9a3b 9d19 10ba 5f67 64bc 4d16 b83c
000001f0: 5f2a 3e3b bfe5 bdbb 3890 6abc 39c9 21bc
00000200: 1deb e63c 17ac bb3c f30d 823d d798 83bc
00000210: 6340 c8bc 40e5 67bd 471d 05bc 4db9 14bd
00000220: 453f 2dbc 06da 66bc c8ec 26bc b162 4fbc
00000230: b56e 4cbc e195 1fbc b523 223d 930d 98bd
00000240: 6aa7 913d 7dba 1bbc 6763 c73c 976c f2bb
00000250: 2b94 8b3c 169b 673d 91d9 cd3c ce85 19b8
00000260: 6407 cfbc eebd 6c3a f933 8b3c 6873 003c
00000270: 6bc8 02bd e85b d2bc 09be 09bc 3e59 efbc
00000280: e547 e1bc 910b 923c 97c5 883d 8ab5 36bd
00000290: d520 4dbd 72fa 1abb 94dc ecb8 b630 4ebc
000002a0: 7759 633c 4c6e 0e3d efab 873d 6ba0 8abc
000002b0: c3bd 063d cda8 103c 6c25 71bd 70d4 cebc
000002c0: f1c6 bb3d b7be 6f3d 233c 30bd 8897 583b
000002d0: 4e6c 973d 2b8c 383b 2d60 c53b ee7c a83b
000002e0: 167c 0d3c 9ace d63b 4e0f 523c 35f9 0a3d
000002f0: 72af d03b 8003 2c3b adeb 5cbd 1c46 253d
00000300: 526e 2bbd df0e be3c cd13 1f3d 041e 24bd
00000310: 21f5 4abd 4146 303b 7adb 4dbd cce3 21bd
00000320: 9dcb 26bb 9a76 59bc 892f 83bc 4019 8ebb
00000330: ef39 f23c 79ce 87bc 264b dbbc 0e3a 38bc
00000340: 4cc4 51bb 14bf 5bba 307e 80bc 865d 9d3c
00000350: 4a22 743d f027 4fbc 462f 483c 0cef b8bb
00000360: b57c 26bd 26f4 03bd 4e65 2cbc f661 aabc
00000370: 629d 993c 9f5f 29bd 80af bf3b 9560 32bc
00000380: ae2a babc cbe1 59bc c16a c73c e50e 8ebb
00000390: c6f8 0dbd 4bc7 b03b e8b8 9f3c 7495 74bc
000003a0: be5f 48bc 6cfd 2c3c 4c1e 30ba 728a 86bb
000003b0: ee26 22bc 0476 643b 3541 4b3c ada0 423c
000003c0: 5e69 45bc eb40 5b3d 0a16 55bc 3752 a7bc
000003d0: f563 973d 24cd a1bc f6ee aebc 7307 863b
000003e0: b536 5abc 4dae 473b f69d afbd 6a43 0bbd
000003f0: 57e5 8cbd 40e4 a2bc 76cd 3a3b fdb3 88bc
0.010501506 -0.0003409829 -0.09299217 -0.015972782 -0.026321905 -0.0161782 -0.0070247147 -0.006879081
-0.026315318 -0.0944463 0.027407946 -0.02559755 0.073171996 -0.05250497 -0.013658663 -0.02199119
-0.022982225 0.002650501 -0.010035405 0.007895132 -0.06577656 -0.02229262 -0.0059392895 -0.008488717
0.007719733 -0.016283555 -0.002275021 -0.003150084 -0.021300271 -0.0068798834 0.010436124 -0.025835287
-0.019223811 -0.03057494 -0.011782047 0.006364428 -0.0112035405 -0.011967028 -0.052073333 0.015842296
-0.0016960273 -0.0027192445 -0.020619007 -0.019367222 0.01829633 -0.007783288 -0.015888572 -0.02856965
-0.02640545 -0.020640032 0.055709887 -0.027955232 -0.061247043 -0.03136668 -0.0012014341 -0.061363246
-0.009722516 0.0016275366 -0.015962496 -0.023794694 -0.002175004 0.039806016 0.06364874 -0.04648178
-0.028764538 -0.003160333 -0.065329514 -0.017395452 -0.008456176 -0.022946045 -0.018979274 -0.011633337
-0.017473668 -0.055945586 0.0012397525 -0.048969276 -0.053947654 -0.04701611 0.012651386 -0.008549148
-0.0391128 -0.05122932 -0.025031924 -0.02448093 -0.020628551 -0.026705071 -0.00070688577 -0.03734387
-0.051512614 -0.020665701 0.0035800932 -0.009993717 -0.018424127 -0.033431116 0.07332234 0.01917618
-0.009063613 0.002506782 -0.03740063 0.044889983 -0.055289093 0.018737398 0.019638252 -0.003546158
-0.011285775 0.021051696 -0.0015576698 0.0054291184 -0.04801443 -0.02778024 0.03140252 -0.051109098
0.028840326 0.013820049 0.04326427 -0.026520753 -0.00042823676 0.012435006 -0.022376496 -0.006416454
0.0047176993 -0.0005496981 -0.013940661 0.022471571 0.0029016954 -0.00579521 -0.014316611 -0.009874635
0.028188283 0.022909207 0.06350317 -0.01606409 -0.024444764 -0.056615114 -0.008124656 -0.03630953
-0.010574167 -0.014090067 -0.010188289 -0.012657807 -0.0124775665 -0.009740324 0.039584834 -0.07424464
0.0711201 -0.0095049115 0.02433939 -0.007398199 0.017038425 0.056544386 0.025128158 -3.6602658e-05
-0.025272079 0.0009030987 0.016992556 0.007840015 -0.031929415 -0.02567859 -0.008407124 -0.029217359
-0.027500102 0.01782778 0.06678312 -0.044606723 -0.05008014 -0.0023647812 -0.00011294443 -0.012584856
0.013876311 0.034773156 0.066245906 -0.016922196 0.032895815 0.008829308 -0.05887358 -0.025247782
0.091688044 0.05853149 -0.0430261 0.0033049304 0.07393704 0.0028159718 0.006023428 0.005141846
0.008635541 0.0065553905 0.012821032 0.03392907 0.006368571 0.0026247203 -0.053935695 0.040350065
-0.041853257 0.02320045 0.038837243 -0.040067688 -0.04955018 0.0026897343 -0.050258137 -0.039523885
-0.0025450953 -0.013272906 -0.016013877 -0.004336506 0.02956864 -0.016577946 -0.026769232 -0.01124431
-0.0032007871 -0.000838266 -0.01568517 0.019209635 0.059603013 -0.012643799 0.012218302 -0.005643731
-0.040646274 -0.03221526 -0.0105222 -0.020798665 0.018751804 -0.041350957 0.0058497787 -0.010887285
-0.02272543 -0.013298462 0.024342896 -0.0043352717 -0.034661077 0.0053948513 0.01949735 -0.0149282105
-0.012229858 0.010558467 -0.0006718382 -0.0041058594 -0.009896977 0.0034860382 0.012405683 0.011879128
-0.012049047 0.053528707 -0.013005743 -0.020424945 0.07392112 -0.019751139 -0.02135418 0.0040902435
-0.013318707 0.0030468882 -0.085750505 -0.033999838 -0.068796806 -0.019884229 0.0028503812 -0.016687388

hidden2.bias f4 [6]
00000000: 80e9 70ba ba50 78ba ce2d acb9 7c87 58b9
00000010: 08ea 26b8 90a2 17bb
-0.00091900676 -0.00094724784 -0.00032840524 -0.00020649837 -3.9795443e-05 -0.0023137666
